android/app/src/assets/meter_yes1_no0.tflite (tflite, 224864 bytes, 28 tensors)

functional_11/functional_21/dense_12/MatMul i1 [128, 240] scale=0.002268699 zero_point=0
000000 17 07 2f de f2 da 2e 1d 0f 0b de 24 e4 25 e8 10
       0.052180078 0.015880894 0.10662885 -0.077135764 -0.031761788 -0.086210564 0.104360156 0.06579227 0.034030486 0.02495569 -0.077135764 0.08167316 -0.063523576 0.08394186 -0.054448776 0.036299184
000010 d3 f4 0d e6 0c d0 fe cf 07 13 0b 0b 30 0e 1a f8
       -0.102091454 -0.027224388 0.029493086 -0.058986172 0.027224388 -0.10889755 -0.004537398 -0.11116625 0.015880894 0.043105282 0.02495569 0.02495569 0.10889755 0.031761788 0.058986172 -0.018149592
000020 cd 29 30 3a 10 25 22 c5 f7 13 fd ca f4 09 f7 ce
       -0.11570365 0.09301666 0.10889755 0.13158454 0.036299184 0.08394186 0.077135764 -0.13385324 -0.02041829 0.043105282 -0.006806097 -0.12250975 -0.027224388 0.02041829 -0.02041829 -0.11343495
000030 ff f6 e0 02 d3 23 38 09 ef 0a 1b 1e 2f 01 de 1b
       -0.002268699 -0.02268699 -0.07259837 0.004537398 -0.102091454 0.079404466 0.12704715 0.02041829 -0.038567882 0.02268699 0.061254874 0.06806097 0.10662885 0.002268699 -0.077135764 0.061254874
000040 ce f9 22 e9 d6 d6 e2 12 f2 2d dd 0c cd 01 f2 20
       -0.11343495 -0.015880894 0.077135764 -0.052180078 -0.095285356 -0.095285356 -0.06806097 0.04083658 -0.031761788 0.102091454 -0.079404466 0.027224388 -0.11570365 0.002268699 -0.031761788 0.07259837
000050 0a 1a 1b ec 23 0a 2e fc ed 21 d6 f7 06 d1 2f d4
       0.02268699 0.058986172 0.061254874 -0.04537398 0.079404466 0.02268699 0.104360156 -0.009074796 -0.043105282 0.07486707 -0.095285356 -0.02041829 0.013612194 -0.10662885 0.10662885 -0.09982276
000060 34 ef 0b 30 2b 12 30 dc 2c 21 1a fe 22 03 01 c9
       0.117972344 -0.038567882 0.02495569 0.10889755 0.09755406 0.04083658 0.10889755 -0.08167316 0.09982276 0.07486707 0.058986172 -0.004537398 0.077135764 0.006806097 0.002268699 -0.12477844
000070 10 24 2d e2 de e4 0e 29 06 d6 d4 f5 31 ce ca db
       0.036299184 0.08167316 0.102091454 -0.06806097 -0.077135764 -0.063523576 0.031761788 0.09301666 0.013612194 -0.095285356 -0.09982276 -0.02495569 0.11116625 -0.11343495 -0.12250975 -0.08394186
000080 df ca d5 e0 e2 c5 fd d9 25 00 1f cd 1c de f9 08
       -0.07486707 -0.12250975 -0.09755406 -0.07259837 -0.06806097 -0.13385324 -0.006806097 -0.08847926 0.08394186 0.0 0.070329666 -0.11570365 0.063523576 -0.077135764 -0.015880894 0.018149592
000090 2b 18 d5 2c 2f fb 20 02 cc 17 04 e7 14 fa 0d 33
       0.09755406 0.054448776 -0.09755406 0.09982276 0.10662885 -0.011343495 0.07259837 0.004537398 -0.117972344 0.052180078 0.009074796 -0.056717474 0.04537398 -0.013612194 0.029493086 0.11570365
0000a0 f0 df 0f 28 cf 19 2a fc db 07 f5 29 dd df d2 29
       -0.036299184 -0.07486707 0.034030486 0.09074796 -0.11116625 0.056717474 0.095285356 -0.009074796 -0.08394186 0.015880894 -0.02495569 0.09301666 -0.079404466 -0.07486707 -0.104360156 0.09301666
0000b0 ee ca 05 c3 e8 24 cf 2f cc ee 20 14 14 e3 f4 02
       -0.04083658 -0.12250975 0.011343495 -0.13839065 -0.054448776 0.08167316 -0.11116625 0.10662885 -0.117972344 -0.04083658 0.07259837 0.04537398 0.04537398 -0.06579227 -0.027224388 0.004537398
0000c0 0e d8 d5 32 16 f4 d9 19 2a 06 ec e6 23 03 02 30
       0.031761788 -0.09074796 -0.09755406 0.11343495 0.04991138 -0.027224388 -0.08847926 0.056717474 0.095285356 0.013612194 -0.04537398 -0.058986172 0.079404466 0.006806097 0.004537398 0.10889755
0000d0 12 d7 1a f3 20 17 08 29 e9 d9 d3 ea ed cd eb 22
       0.04083658 -0.09301666 0.058986172 -0.029493086 0.07259837 0.052180078 0.018149592 0.09301666 -0.052180078 -0.08847926 -0.102091454 -0.04991138 -0.043105282 -0.11570365 -0.047642678 0.077135764
0000e0 f1 fc 1c f7 16 e4 dd 38 f0 19 f3 e2 ce 10 ff 2d
       -0.034030486 -0.009074796 0.063523576 -0.02041829 0.04991138 -0.063523576 -0.079404466 0.12704715 -0.036299184 0.056717474 -0.029493086 -0.06806097 -0.11343495 0.036299184 -0.002268699 0.102091454
0000f0 d1 d4 e7 ea e6 f6 ee f2 1e fc 0a ef 1e dc 33 d0
       -0.10662885 -0.09982276 -0.056717474 -0.04991138 -0.058986172 -0.02268699 -0.04083658 -0.031761788 0.06806097 -0.009074796 0.02268699 -0.038567882 0.06806097 -0.08167316 0.11570365 -0.10889755

functional_11/functional_21/dense_13/MatMul i1 [1, 128] scale=0.0018540297 zero_point=0
000000 4d a9 e3 42 96 b1 ee d7 e1 ab 08 d1 60 c8 4d c5
       0.14276029 -0.16130058 -0.05376686 0.12236596 -0.19652715 -0.14646834 -0.033372536 -0.07601522 -0.057474922 -0.15759252 0.014832238 -0.0871394 0.17798686 -0.103825666 0.14276029 -0.109387755
000010 e3 c1 f6 0c c8 92 e1 98 5d ce e6 60 d4 f7 42 52
       -0.05376686 -0.11680387 -0.018540297 0.022248358 -0.103825666 -0.20394327 -0.057474922 -0.19281909 0.17242476 -0.09270149 -0.048204772 0.17798686 -0.08157731 -0.016686268 0.12236596 0.15203044
000020 66 95 32 fa 20 00 5a 8c 20 ef c9 8b 0e 45 be a4
       0.18911102 -0.19838119 0.09270149 -0.011124179 0.05932895 0.0 0.16686268 -0.21506745 0.05932895 -0.031518504 -0.101971634 -0.21692148 0.025956417 0.12792805 -0.12236596 -0.17057073
000030 50 95 1b 99 56 01 e9 e2 b4 62 28 bb 38 29 4c 64
       0.14832237 -0.19838119 0.0500588 -0.19096506 0.15944655 0.0018540297 -0.042642683 -0.05562089 -0.14090626 0.18169491 0.07416119 -0.12792805 0.103825666 0.07601522 0.14090626 0.18540297
000040 fd d3 c8 5d da 81 d8 b1 2a 64 0d cb 30 60 46 cd
       -0.0055620894 -0.08343134 -0.103825666 0.17242476 -0.07045313 -0.23546177 -0.07416119 -0.14646834 0.07786925 0.18540297 0.024102386 -0.09826358 0.08899343 0.17798686 0.12978208 -0.09455551
000050 5c b6 d0 bc 43 a2 9f f7 39 f7 92 f5 b9 13 d2 1b
       0.17057073 -0.1371982 -0.08899343 -0.12607402 0.12421999 -0.1742788 -0.17984088 -0.016686268 0.10567969 -0.016686268 -0.20394327 -0.020394327 -0.13163611 0.035226565 -0.085285366 0.0500588
000060 af a7 ee bf 5b d1 4d c9 35 01 cb b2 a5 eb e0 37
       -0.1501764 -0.16500865 -0.033372536 -0.120511934 0.1687167 -0.0871394 0.14276029 -0.101971634 0.09826358 0.0018540297 -0.09826358 -0.14461432 -0.1687167 -0.038934626 -0.05932895 0.101971634
000070 f1 1f e1 63 34 b6 12 46 0c bf 60 14 5c 67 d4 30
       -0.027810445 0.057474922 -0.057474922 0.18354894 0.096409544 -0.1371982 0.033372536 0.12978208 0.022248358 -0.120511934 0.17798686 0.037080593 0.17057073 0.19096506 -0.08157731 0.08899343

functional_11/functional_21/stem_conv/Conv2D i1 [32, 3, 3, 3]
000000 d6 09 ef e6 1a fb 21 c8 f9 7f 53 0c 35 2c fc bf
       -42 9 -17 -26 26 -5 33 -56 -7 127 83 12 53 44 -4 -65
000010 29 fa 4a 58 20 f3 2a 1b 33 f1 df 45 57 17 64 7f
       41 -6 74 88 32 -13 42 27 51 -15 -33 69 87 23 100 127
000020 2c 13 3f 2c c2 c2 ea 8c 8e c0 f0 8e c0 0a f4 00
       44 19 63 44 -62 -62 -22 -116 -114 -64 -16 -114 -64 10 -12 0
000030 0e 02 16 00 2e 19 cc ad ea 17 63 0d 12 e9 0d cb
       14 2 22 0 46 25 -52 -83 -22 23 99 13 18 -23 13 -53
000040 81 dd 5d 40 10 d4 40 10 f1 ef f8 04 2f 19 10 de
       -127 -35 93 64 16 -44 64 16 -15 -17 -8 4 47 25 16 -34
000050 ed 08 ce 05 41 7f 18 0f 00 14 dd 3d 02 f6 ee fc
       -19 8 -50 5 65 127 24 15 0 20 -35 61 2 -10 -18 -4
000060 ce ed fa 1d 0a fc d2 a9 f3 06 ef ee fc b0 47 21
       -50 -19 -6 29 10 -4 -46 -87 -13 6 -17 -18 -4 -80 71 33
000070 94 5b fa 99 59 05 9e 5e 2d 83 72 18 81 71 0b a5
       -108 91 -6 -103 89 5 -98 94 45 -125 114 24 -127 113 11 -91
000080 33 0c a0 4d fc f4 0b ca dc e3 f0 c8 ff e2 35 ff
       51 12 -96 77 -4 -12 11 -54 -36 -29 -16 -56 -1 -30 53 -1
000090 f4 81 d0 d1 ab f7 62 ad f7 d3 ef 11 e7 cd f3 c1
       -12 -127 -48 -47 -85 -9 98 -83 -9 -45 -17 17 -25 -51 -13 -63
0000a0 11 16 69 ed b6 7f f3 96 6b 15 9c 7a ff 9d 7e fc
       17 22 105 -19 -74 127 -13 -106 107 21 -100 122 -1 -99 126 -4
0000b0 91 7b 01 97 42 e9 db 52 01 ce 03 fc 32 19 d2 03
       -111 123 1 -105 66 -23 -37 82 1 -50 3 -4 50 25 -46 3
0000c0 26 f5 fb 2d bd fa 29 4d 30 5b 59 2d 81 58 2b ef
       38 -11 -5 45 -67 -6 41 77 48 91 89 45 -127 88 43 -17
0000d0 ef cd ed cb cd 37 06 c4 1c eb 05 f0 c1 04 02 4b
       -17 -51 -19 -53 -51 55 6 -60 28 -21 5 -16 -63 4 2 75
0000e0 04 ef 7f 2e a5 d4 ee 67 d4 ed 34 09 e3 fd ee f7
       4 -17 127 46 -91 -44 -18 103 -44 -19 52 9 -29 -3 -18 -9
0000f0 e0 0d 1f f6 e8 f8 29 2e 07 e3 81 08 de 06 fc 52
       -32 13 31 -10 -24 -8 41 46 7 -29 -127 8 -34 6 -4 82

functional_11/functional_21/block1a_se_reduce/Conv2D i1 [8, 1, 1, 32]
000000 fe 0c 14 f1 f1 03 03 f4 06 fc 1c eb 1c 0c af 21
       -2 12 20 -15 -15 3 3 -12 6 -4 28 -21 28 12 -81 33
000010 f3 06 04 e8 fa e8 f0 04 ef 12 f3 b0 c2 81 b6 ed
       -13 6 4 -24 -6 -24 -16 4 -17 18 -13 -80 -62 -127 -74 -19
000020 b7 04 ec e9 f4 e6 d8 0c f5 f7 28 75 ed dc 83 f2
       -73 4 -20 -23 -12 -26 -40 12 -11 -9 40 117 -19 -36 -125 -14
000030 d2 ea fa 88 e2 03 c5 e5 f9 ee 03 b3 c4 13 81 f3
       -46 -22 -6 -120 -30 3 -59 -27 -7 -18 3 -77 -60 19 -127 -13
000040 b9 ca ea ce a0 d9 d2 b5 a3 b1 ed 0c d4 c0 81 e3
       -71 -54 -22 -50 -96 -39 -46 -75 -93 -79 -19 12 -44 -64 -127 -29
000050 01 d6 dc b0 86 bd ba d2 fb e1 c7 f0 cb c1 d2 f0
       1 -42 -36 -80 -122 -67 -70 -46 -5 -31 -57 -16 -53 -63 -46 -16
000060 e3 09 1b 04 e2 ee f8 1c fa f4 3d 47 e2 d7 81 13
       -29 9 27 4 -30 -18 -8 28 -6 -12 61 71 -30 -41 -127 19
000070 02 f2 f8 e5 d2 ec c1 e7 0b fb 0c c0 c5 fc e7 1b
       2 -14 -8 -27 -46 -20 -63 -25 11 -5 12 -64 -59 -4 -25 27
000080 07 eb f4 08 eb f6 dd 14 fa f1 e6 f4 ea 04 19 00
       7 -21 -12 8 -21 -10 -35 20 -6 -15 -26 -12 -22 4 25 0
000090 e7 e4 ec 09 e7 19 0d d4 0c e9 0e 91 81 fe 0a 01
       -25 -28 -20 9 -25 25 13 -44 12 -23 14 -111 -127 -2 10 1
0000a0 f3 eb fd 07 ea f4 e3 1a f7 f2 e8 01 de 01 0d 03
       -13 -21 -3 7 -22 -12 -29 26 -9 -14 -24 1 -34 1 13 3
0000b0 f4 ed f2 f4 e5 17 07 d5 18 ed 00 8d 81 fe f6 04
       -12 -19 -14 -12 -27 23 7 -43 24 -19 0 -115 -127 -2 -10 4
0000c0 ef de 43 eb eb e4 55 3a f7 d3 a8 18 be e3 9c 3a
       -17 -34 67 -21 -21 -28 85 58 -9 -45 -88 24 -66 -29 -100 58
0000d0 7f 06 dd 07 f4 29 e8 d6 55 ff dc eb 2a d3 37 2f
       127 6 -35 7 -12 41 -24 -42 85 -1 -36 -21 42 -45 55 47
0000e0 fc f5 1c fa ee fd d0 e0 d9 ef ed 64 f6 f7 d4 13
       -4 -11 28 -6 -18 -3 -48 -32 -39 -17 -19 100 -10 -9 -44 19
0000f0 d0 eb fe 08 c6 06 fe e4 2d f3 ef f1 81 1e 22 1a
       -48 -21 -2 8 -58 6 -2 -28 45 -13 -17 -15 -127 30 34 26

functional_11/functional_21/block1a_se_expand/Conv2D i1 [32, 1, 1, 8]
000000 da 81 f1 a6 04 d8 3a 01 a8 9a 7f c3 f2 af f6 c1
       -38 -127 -15 -90 4 -40 58 1 -88 -102 127 -61 -14 -81 -10 -63
000010 fa bb 15 f2 01 04 7f 21 f7 81 c7 ad 3d ff 3f 53
       -6 -69 21 -14 1 4 127 33 -9 -127 -57 -83 61 -1 63 83
000020 f7 bd d1 86 0d 00 81 cb d1 81 07 aa ee c0 2f e6
       -9 -67 -47 -122 13 0 -127 -53 -47 -127 7 -86 -18 -64 47 -26
000030 4e f7 f7 d6 81 94 ad a5 1e 27 fe 54 6d 7f 47 e0
       78 -9 -9 -42 -127 -108 -83 -91 30 39 -2 84 109 127 71 -32
000040 10 df f8 5a 9e bd 7f b3 b0 87 60 c4 81 dd 74 6b
       16 -33 -8 90 -98 -67 127 -77 -80 -121 96 -60 -127 -35 116 107
000050 0c 81 10 9a 24 eb c5 ec e2 7f 06 6e e4 fb e6 68
       12 -127 16 -102 36 -21 -59 -20 -30 127 6 110 -28 -5 -26 104
000060 ba f7 e9 3d 1f 16 7f 01 fa 81 d5 82 f3 d2 d2 c0
       -70 -9 -23 61 31 22 127 1 -6 -127 -43 -126 -13 -46 -46 -64
000070 e2 b2 db a8 37 1f 81 f1 f6 e5 1c 05 0c 1a 7f 3a
       -30 -78 -37 -88 55 31 -127 -15 -10 -27 28 5 12 26 127 58
000080 f2 06 fe f1 ea e3 81 f5 c5 2e d1 0c 95 9d 81 dd
       -14 6 -2 -15 -22 -29 -127 -11 -59 46 -47 12 -107 -99 -127 -35
000090 81 30 5c 18 ee e8 1b 33 1f 81 ef bb 1e f3 0e eb
       -127 48 92 24 -18 -24 27 51 31 -127 -17 -69 30 -13 14 -21
0000a0 04 cc e3 e1 f9 e7 dc 81 a7 b4 ad 89 21 05 7f 10
       4 -52 -29 -31 -7 -25 -36 -127 -89 -76 -83 -119 33 5 127 16
0000b0 f6 81 f1 98 35 f6 ea 04 15 aa cf b4 81 8e 3f aa
       -10 -127 -15 -104 53 -10 -22 4 21 -86 -49 -76 -127 -114 63 -86
0000c0 f5 c7 10 fe f9 05 7f 24 25 81 fa a1 bf d7 7f d4
       -11 -57 16 -2 -7 5 127 36 37 -127 -6 -95 -65 -41 127 -44
0000d0 09 e4 e0 e4 86 81 f3 a4 14 1d 1e 15 7f 5d e8 19
       9 -28 -32 -28 -122 -127 -13 -92 20 29 30 21 127 93 -24 25
0000e0 03 db f1 e2 81 8d 42 bf ea 3a f9 fc cc c6 81 23
       3 -37 -15 -30 -127 -115 66 -65 -22 58 -7 -4 -52 -58 -127 35
0000f0 af f2 e3 c5 d0 bd 81 e9 c2 81 e1 bc 99 8b 17 f0
       -81 -14 -29 -59 -48 -67 -127 -23 -62 -127 -31 -68 -103 -117 23 -16

functional_11/functional_21/block1a_project_conv/Conv2D i1 [16, 1, 1, 32]
000000 18 5e f3 24 fc dd f9 0e fe 02 c8 fb 1e 20 04 18
       24 94 -13 36 -4 -35 -7 14 -2 2 -56 -5 30 32 4 24
000010 10 19 e9 e4 02 7f cc 0d d7 00 03 f4 ff e1 0e 03
       16 25 -23 -28 2 127 -52 13 -41 0 3 -12 -1 -31 14 3
000020 fe 02 fe 01 f6 01 24 03 ff fe 00 0e 0e ff 00 fb
       -2 2 -2 1 -10 1 36 3 -1 -2 0 14 14 -1 0 -5
000030 fb 02 01 04 e7 00 04 03 03 fe a9 de 81 07 fe 06
       -5 2 1 4 -25 0 4 3 3 -2 -87 -34 -127 7 -2 6
000040 35 09 fc fd 01 7f 07 22 15 0c 02 fc 05 13 e7 fa
       53 9 -4 -3 1 127 7 34 21 12 2 -4 5 19 -25 -6
000050 1d 07 18 b9 0e fc 23 01 03 fe 03 eb fb a6 3a f3
       29 7 24 -71 14 -4 35 1 3 -2 3 -21 -5 -90 58 -13
000060 19 32 cc 8f 05 ef 00 01 81 17 10 04 f5 03 08 c5
       25 50 -52 -113 5 -17 0 1 -127 23 16 4 -11 3 8 -59
000070 ff 08 04 ca fa 00 00 ee 36 21 06 10 03 c0 1b 65
       -1 8 4 -54 -6 0 0 -18 54 33 6 16 3 -64 27 101
000080 b8 f7 fb 0e ff bf 09 31 3b 0c e4 f2 01 4d d8 e8
       -72 -9 -5 14 -1 -65 9 49 59 12 -28 -14 1 77 -40 -24
000090 2b 1b ef 62 15 08 72 fd 04 fc 09 e7 ff 81 b5 1f
       43 27 -17 98 21 8 114 -3 4 -4 9 -25 -1 -127 -75 31
0000a0 22 b8 01 f9 f6 fe f8 d4 c8 f7 af 07 02 49 1d f2
       34 -72 1 -7 -10 -2 -8 -44 -56 -9 -81 7 2 73 29 -14
0000b0 db 22 05 cf ee 30 67 fd 0c fd fb 16 09 7f 20 de
       -37 34 5 -49 -18 48 103 -3 12 -3 -5 22 9 127 32 -34
0000c0 fc 27 c7 1d 05 28 34 0c 36 fa 0d 0f 81 e9 06 b4
       -4 39 -57 29 5 40 52 12 54 -6 13 15 -127 -23 6 -76
0000d0 df 16 fb 29 f9 08 13 71 34 d6 f3 08 fc 1e e7 31
       -33 22 -5 41 -7 8 19 113 52 -42 -13 8 -4 30 -25 49
0000e0 14 f9 ae 15 00 33 fa 1d 0b f2 04 fc 06 3a 03 11
       20 -7 -82 21 0 51 -6 29 11 -14 4 -4 6 58 3 17
0000f0 f4 f3 f7 1a fd ea f1 f8 e2 7f 04 0a 01 15 eb 41
       -12 -13 -9 26 -3 -22 -15 -8 -30 127 4 10 1 21 -21 65

functional_11/functional_21/block2a_expand_conv/Conv2D i1 [96, 1, 1, 16]
000000 03 10 18 00 11 e9 f8 fe 12 fe 02 02 f9 81 03 03
       3 16 24 0 17 -23 -8 -2 18 -2 2 2 -7 -127 3 3
000010 81 fd 02 1b f6 f2 0a 21 fa 03 f0 ea b3 00 dd 41
       -127 -3 2 27 -10 -14 10 33 -6 3 -16 -22 -77 0 -35 65
000020 13 ff 2b fe 81 b3 dc f6 12 02 08 07 05 08 e8 07
       19 -1 43 -2 -127 -77 -36 -10 18 2 8 7 5 8 -24 7
000030 32 fd a8 ec 56 22 b5 ce 23 b2 7f 6e bb 17 c3 54
       50 -3 -88 -20 86 34 -75 -50 35 -78 127 110 -69 23 -61 84
000040 fd 01 20 fe 5b 7f 05 08 ff 06 07 f9 05 01 f8 02
       -3 1 32 -2 91 127 5 8 -1 6 7 -7 5 1 -8 2
000050 f9 ed 81 13 64 df ff e5 ef f5 04 4f 0c fb e4 1c
       -7 -19 -127 19 100 -33 -1 -27 -17 -11 4 79 12 -5 -28 28
000060 e6 ff 9e ed fb 81 15 3b cf 14 09 11 27 f9 21 fb
       -26 -1 -98 -19 -5 -127 21 59 -49 20 9 17 39 -7 33 -5
000070 19 f2 7a 12 f6 7f e4 ae 03 f7 f2 34 e8 0b ed 16
       25 -14 122 18 -10 127 -28 -82 3 -9 -14 52 -24 11 -19 22
000080 cc 27 9d ff a8 26 2d d5 fe 1d 5c 81 3a e9 53 e9
       -52 39 -99 -1 -88 38 45 -43 -2 29 92 -127 58 -23 83 -23
000090 22 fb da 6f 01 ff eb 81 21 a2 99 e2 f0 06 e7 6c
       34 -5 -38 111 1 -1 -21 -127 33 -94 -103 -30 -16 6 -25 108
0000a0 17 0a 04 f1 e4 d3 e2 27 1e 00 17 e4 dd 0c 7f 1b
       23 10 4 -15 -28 -45 -30 39 30 0 23 -28 -35 12 127 27
0000b0 a9 f8 06 4d 1b 16 ac 05 3e 23 d9 e2 7f 01 25 b6
       -87 -8 6 77 27 22 -84 5 62 35 -39 -30 127 1 37 -74
0000c0 ee fe 7f ed ab 24 e4 d4 08 2b e1 de 23 05 0d 0f
       -18 -2 127 -19 -85 36 -28 -44 8 43 -31 -34 35 5 13 15
0000d0 08 7f e3 fb f4 0b 02 04 10 01 03 ec f2 71 f8 ee
       8 127 -29 -5 -12 11 2 4 16 1 3 -20 -14 113 -8 -18
0000e0 e3 f4 81 f1 63 d6 4b 3a b2 f9 e4 fb 0c eb 3d df
       -29 -12 -127 -15 99 -42 75 58 -78 -7 -28 -5 12 -21 61 -33
0000f0 d6 36 33 61 46 74 70 e4 95 10 d9 c6 df fc b2 7f
       -42 54 51 97 70 116 112 -28 -107 16 -39 -58 -33 -4 -78 127

functional_11/functional_21/block2a_se_reduce/Conv2D i1 [4, 1, 1, 96]
000000 da 0d f7 0a fb 13 ef f7 01 e1 f8 f7 11 32 02 12
       -38 13 -9 10 -5 19 -17 -9 1 -31 -8 -9 17 50 2 18
000010 11 f1 e1 fd f0 09 ff 08 c2 0b 0e 2c fe fa 03 c4
       17 -15 -31 -3 -16 9 -1 8 -62 11 14 44 -2 -6 3 -60
000020 17 ea 05 fe f6 f9 07 02 0b d7 f8 45 ce f9 e6 01
       23 -22 5 -2 -10 -7 7 2 11 -41 -8 69 -50 -7 -26 1
000030 11 0a 04 fa fa 05 fa 01 05 fe f7 f8 ee 07 fa 0e
       17 10 4 -6 -6 5 -6 1 5 -2 -9 -8 -18 7 -6 14
000040 e9 7f 04 ff f4 0e 12 f5 05 00 05 04 07 f4 07 15
       -23 127 4 -1 -12 14 18 -11 5 0 5 4 7 -12 7 21
000050 1b 10 fe 0f 5d 01 e6 ff 20 05 e2 f8 11 04 0a f8
       27 16 -2 15 93 1 -26 -1 32 5 -30 -8 17 4 10 -8
000060 0e 0a 04 f3 2a 48 c5 c9 33 93 f5 cb 05 05 09 0e
       14 10 4 -13 42 72 -59 -55 51 -109 -11 -53 5 5 9 14
000070 c6 43 b5 0e a1 1a 4e 03 05 e9 24 ff de 18 0e e1
       -58 67 -75 14 -95 26 78 3 5 -23 36 -1 -34 24 14 -31
000080 44 dc 40 43 37 ba fd cd f3 2f ac 59 e9 e1 ff f8
       68 -36 64 67 55 -70 -3 -51 -13 47 -84 89 -23 -31 -1 -8
000090 12 eb 4a 08 01 ea 3e 44 f6 ea d2 f4 11 b9 21 3e
       18 -21 74 8 1 -22 62 68 -10 -22 -46 -12 17 -71 33 62
0000a0 81 2b 1a e1 f0 0a 11 d6 19 aa 17 c7 f3 fc 08 20
       -127 43 26 -31 -16 10 17 -42 25 -86 23 -57 -13 -4 8 32
0000b0 d7 e9 dc f1 34 e4 ed db c1 2b fc 07 3b ff 0b ea
       -41 -23 -36 -15 52 -28 -19 -37 -63 43 -4 7 59 -1 11 -22
0000c0 34 00 ef f7 ff 02 00 f4 f0 db eb f8 01 f5 fa 0d
       52 0 -17 -9 -1 2 0 -12 -16 -37 -21 -8 1 -11 -6 13
0000d0 1b ff 7f ea f7 12 0c ff 3e ec 07 f9 f8 ed f0 1d
       27 -1 127 -22 -9 18 12 -1 62 -20 7 -7 -8 -19 -16 29
0000e0 fb ea f4 e5 e2 fd f5 d6 08 28 f5 ef 54 f0 eb 0a
       -5 -22 -12 -27 -30 -3 -11 -42 8 40 -11 -17 84 -16 -21 10
0000f0 01 ed ff ee e9 25 05 01 05 e9 fb f2 f3 ff fb 0e
       1 -19 -1 -18 -23 37 5 1 5 -23 -5 -14 -13 -1 -5 14

functional_11/functional_21/block2a_se_expand/Conv2D i1 [96, 1, 1, 4]
000000 58 17 1b 7f 2f 7f 32 1d 64 7f 59 4f 28 7f 43 34
       88 23 27 127 47 127 50 29 100 127 89 79 40 127 67 52
000010 29 e4 3f 7f 50 74 7f 7f 55 5b 7f 5d 1c 7f 35 42
       41 -28 63 127 80 116 127 127 85 91 127 93 28 127 53 66
000020 50 7f 4f 4d 35 7f 60 35 77 6f 60 7f 54 77 63 7f
       80 127 79 77 53 127 96 53 119 111 96 127 84 119 99 127
000030 3c 14 5a 7f b7 0b 06 7f 78 2b 7f 71 61 78 7f 52
       60 20 90 127 -73 11 6 127 120 43 127 113 97 120 127 82
000040 52 3a 51 7f 3b 7f 44 65 02 07 15 7f 22 e2 7f 5e
       82 58 81 127 59 127 68 101 2 7 21 127 34 -30 127 94
000050 45 7f 66 77 fb 7f 37 29 13 7f 22 ff 4a 7f 77 5a
       69 127 102 119 -5 127 55 41 19 127 34 -1 74 127 119 90
000060 4f ef 81 48 1d 7f 66 38 4e 4e 72 7f 78 8e 7f 64
       79 -17 -127 72 29 127 102 56 78 78 114 127 120 -114 127 100
000070 34 7f 2d 16 6b 18 7f 5d 29 7f 39 34 4c 16 48 7f
       52 127 45 22 107 24 127 93 41 127 57 52 76 22 72 127
000080 45 14 7f 59 7f 71 4d 5c 4d 66 5c 7f 3f 0d 6b 7f
       69 20 127 89 127 113 77 92 77 102 92 127 63 13 107 127
000090 42 6b 7f 3f 7f 52 2c 1f 38 14 42 7f 7f bd 76 7a
       66 107 127 63 127 82 44 31 56 20 66 127 127 -67 118 122
0000a0 49 7f 4a 37 4a 93 7f 77 40 3c 1c 7f 35 0c 4c 7f
       73 127 74 55 74 -109 127 119 64 60 28 127 53 12 76 127
0000b0 17 7f 4d 45 69 76 5c 7f 41 7f 63 7a 41 7f 52 34
       23 127 77 69 105 118 92 127 65 127 99 122 65 127 82 52
0000c0 3f 45 53 7f 2a 05 37 7f 33 10 4a 7f 53 7f 5c 2e
       63 69 83 127 42 5 55 127 51 16 74 127 83 127 92 46
0000d0 13 7f 0e 39 ea 68 30 7f bd f9 00 7f 7f 7e 5b 2c
       19 127 14 57 -22 104 48 127 -67 -7 0 127 127 126 91 44
0000e0 2f 7f 67 6d 23 0e 46 7f 19 7f 37 2a 2a 7f 29 40
       47 127 103 109 35 14 70 127 25 127 55 42 42 127 41 64
0000f0 2b 33 4a 7f 0f 7f 2e 33 17 7f 20 06 62 7f 3b 7a
       43 51 74 127 15 127 46 51 23 127 32 6 98 127 59 122

functional_11/functional_21/block2a_project_conv/Conv2D i1 [24, 1, 1, 96]
000000 c0 c9 53 cf f7 20 0d 23 42 d1 24 31 cb e5 71 11
       -64 -55 83 -49 -9 32 13 35 66 -47 36 49 -53 -27 113 17
000010 fe 06 0a c2 f6 10 f0 24 f2 2f 12 dc 0a 67 25 17
       -2 6 10 -62 -10 16 -16 36 -14 47 18 -36 10 103 37 23
000020 24 84 e6 4d 6a a8 0f bf 2e dc 09 01 bd 29 d9 38
       36 -124 -26 77 106 -88 15 -65 46 -36 9 1 -67 41 -39 56
000030 2a e2 c5 d5 a3 08 f8 a4 00 2d 4b 48 da 17 e6 f6
       42 -30 -59 -43 -93 8 -8 -92 0 45 75 72 -38 23 -26 -10
000040 10 c3 fb 20 29 f9 c9 be 28 05 46 25 81 1a 9c 05
       16 -61 -5 32 41 -7 -55 -66 40 5 70 37 -127 26 -100 5
000050 e9 2b 10 26 fd cb b0 21 fe fc e0 5c 9c ac 05 40
       -23 43 16 38 -3 -53 -80 33 -2 -4 -32 92 -100 -84 5 64
000060 f6 c6 f9 e4 d6 0f 0e 14 13 18 1d 17 e3 04 8c 0e
       -10 -58 -7 -28 -42 15 14 20 19 24 29 23 -29 4 -116 14
000070 11 25 0c fe 1e 26 06 1d f8 33 7a 08 fc 81 25 f6
       17 37 12 -2 30 38 6 29 -8 51 122 8 -4 -127 37 -10
000080 ed d9 c2 51 a4 e6 20 13 e3 06 ff fc fe fc 11 12
       -19 -39 -62 81 -92 -26 32 19 -29 6 -1 -4 -2 -4 17 18
000090 08 0d df c3 f7 fb 0b e4 0d 1f 15 09 05 fa 07 e6
       8 13 -33 -61 -9 -5 11 -28 13 31 21 9 5 -6 7 -26
0000a0 1e 00 ca 11 28 fb c7 f1 e4 eb d2 0a e1 94 ec d4
       30 0 -54 17 40 -5 -57 -15 -28 -21 -46 10 -31 -108 -20 -44
0000b0 da f1 01 05 f5 c3 f8 18 07 07 fe b5 ee f9 14 ba
       -38 -15 1 5 -11 -61 -8 24 7 7 -2 -75 -18 -7 20 -70
0000c0 f6 40 15 e7 f1 fb 0a 1b ed 12 fa e0 e9 f2 f2 ee
       -10 64 21 -25 -15 -5 10 27 -19 18 -6 -32 -23 -14 -14 -18
0000d0 08 08 0c 1f 1c 2e 1a f2 00 cf 52 06 fc ed ef 0d
       8 8 12 31 28 46 26 -14 0 -49 82 6 -4 -19 -17 13
0000e0 0c 1d f3 7f f9 f9 ea 21 cd 09 fb 01 ff 22 10 24
       12 29 -13 127 -7 -7 -22 33 -51 9 -5 1 -1 34 16 36
0000f0 26 e8 1c 0a 09 14 ff 03 15 f9 09 12 17 f0 1a de
       38 -24 28 10 9 20 -1 3 21 -7 9 18 23 -16 26 -34

functional_11/functional_21/block2b_expand_conv/Conv2D i1 [144, 1, 1, 24]
000000 c4 ef b6 f8 2f c8 da 0d de 06 17 ed 24 de f5 e0
       -60 -17 -74 -8 47 -56 -38 13 -34 6 23 -19 36 -34 -11 -32
000010 8c fb 7f 0b fd f6 e3 ef 0b 4c ad 7f 2e c1 5b f0
       -116 -5 127 11 -3 -10 -29 -17 11 76 -83 127 46 -63 91 -16
000020 d8 fb 6c ba 37 0a 42 29 27 2b db 29 24 1e eb 14
       -40 -5 108 -70 55 10 66 41 39 43 -37 41 36 30 -21 20
000030 f8 12 0b 0e fb 18 d6 f5 00 08 07 7f f5 d9 0b 0a
       -8 18 11 14 -5 24 -42 -11 0 8 7 127 -11 -39 11 10
000040 11 03 fe ff f6 04 fa f1 dd 13 ce 01 8e ab 56 f4
       17 3 -2 -1 -10 4 -6 -15 -35 19 -50 1 -114 -85 86 -12
000050 81 ef 10 ae 3f 05 10 f9 66 fd 79 12 1f 0f d9 b7
       -127 -17 16 -82 63 5 16 -7 102 -3 121 18 31 15 -39 -73
000060 e3 b7 e0 0c 1d ff ea 30 f5 7f f7 dc ec e3 12 d9
       -29 -73 -32 12 29 -1 -22 48 -11 127 -9 -36 -20 -29 18 -39
000070 2e 03 f5 fa 2d 0f df d6 0e 1c f4 e8 c5 bb 2b d5
       46 3 -11 -6 45 15 -33 -42 14 28 -12 -24 -59 -69 43 -43
000080 05 07 2b 7f 06 1e 0c e8 15 08 45 f6 f9 01 25 ec
       5 7 43 127 6 30 12 -24 21 8 69 -10 -7 1 37 -20
000090 24 00 fd 42 12 05 04 2e e6 7f fc 13 0a 1b f5 f2
       36 0 -3 66 18 5 4 46 -26 127 -4 19 10 27 -11 -14
0000a0 18 16 f4 2c 19 31 01 01 d7 05 b6 c2 1f 10 b7 00
       24 22 -12 44 25 49 1 1 -41 5 -74 -62 31 16 -73 0
0000b0 f7 ef 17 e1 0e c4 1c a2 92 d1 7f c7 1c 12 0a 42
       -9 -17 23 -31 14 -60 28 -94 -110 -47 127 -57 28 18 10 66
0000c0 2e 20 4e 17 f4 25 99 fc b7 0b 1c b5 24 bf f7 1f
       46 32 78 23 -12 37 -103 -4 -73 11 28 -75 36 -65 -9 31
0000d0 0f ea 30 7f 3d 04 24 12 f0 c6 fc 08 f3 f6 e0 03
       15 -22 48 127 61 4 36 18 -16 -58 -4 8 -13 -10 -32 3
0000e0 0d f5 f0 fa 0e 81 fb ff e4 04 e0 0e dd f6 d7 c7
       13 -11 -16 -6 14 -127 -5 -1 -28 4 -32 14 -35 -10 -41 -57
0000f0 07 09 1a 5b 31 de db 09 f7 0e e6 24 ce 2b 05 81
       7 9 26 91 49 -34 -37 9 -9 14 -26 36 -50 43 5 -127

functional_11/functional_21/block2b_se_reduce/Conv2D i1 [6, 1, 1, 144]
000000 eb f0 07 0a f2 17 40 ed f0 fa 01 05 12 07 d9 03
       -21 -16 7 10 -14 23 64 -19 -16 -6 1 5 18 7 -39 3
000010 f8 e2 ef ea 17 21 e8 ec 0a 02 e6 f6 04 19 fc 0b
       -8 -30 -17 -22 23 33 -24 -20 10 2 -26 -10 4 25 -4 11
000020 ef 17 e1 fc 0a 04 09 ed f3 01 be 12 f2 fb d6 04
       -17 23 -31 -4 10 4 9 -19 -13 1 -66 18 -14 -5 -42 4
000030 40 0d 05 12 cd fa f6 08 00 f9 ee e6 02 05 fb 0c
       64 13 5 18 -51 -6 -10 8 0 -7 -18 -26 2 5 -5 12
000040 33 13 0a f2 10 ff ec 2b e9 f3 12 f7 05 31 fc 02
       51 19 10 -14 16 -1 -20 43 -23 -13 18 -9 5 49 -4 2
000050 0b 1f d9 bb 05 00 df 0c ec e0 27 fd ed fd f1 da
       11 31 -39 -69 5 0 -33 12 -20 -32 39 -3 -19 -3 -15 -38
000060 e1 fe f8 00 fd f4 e9 fa fc fd 15 0a 17 13 f4 f4
       -31 -2 -8 0 -3 -12 -23 -6 -4 -3 21 10 23 19 -12 -12
000070 05 06 e6 18 03 03 0a 0f 01 03 f9 7f f0 eb 1a f4
       5 6 -26 24 3 3 10 15 1 3 -7 127 -16 -21 26 -12
000080 02 12 07 26 0c fa 07 18 f0 0e 02 f5 fc 06 02 00
       2 18 7 38 12 -6 7 24 -16 14 2 -11 -4 6 2 0
000090 f2 04 08 05 0e 0e 0b fa f4 07 ff 05 08 12 11 f6
       -14 4 8 5 14 14 11 -6 -12 7 -1 5 8 18 17 -10
0000a0 f7 f2 f6 f1 0b 11 f7 1b 06 f9 ef ff fb ef ff 09
       -9 -14 -10 -15 11 17 -9 27 6 -7 -17 -1 -5 -17 -1 9
0000b0 f8 c5 f3 fb 0f 0b 0c fb fa fa 0c 06 fb f9 4d f9
       -8 -59 -13 -5 15 11 12 -5 -6 -6 12 6 -5 -7 77 -7
0000c0 fb 03 21 05 fc 03 08 fa 04 0a fc 0b fc fe fb 07
       -5 3 33 5 -4 3 8 -6 4 10 -4 11 -4 -2 -5 7
0000d0 81 0f 0d f8 02 ff f6 f7 ff 11 02 fd 0a 03 1c 04
       -127 15 13 -8 2 -1 -10 -9 -1 17 2 -3 10 3 28 4
0000e0 01 01 ee 06 fe 03 ed ff f3 f6 0c 01 f8 10 fa f8
       1 1 -18 6 -2 3 -19 -1 -13 -10 12 1 -8 16 -6 -8
0000f0 ef 0f fb 0d fc f4 fa f9 f3 fd 16 07 00 04 00 f9
       -17 15 -5 13 -4 -12 -6 -7 -13 -3 22 7 0 4 0 -7

functional_11/functional_21/block2b_se_expand/Conv2D i1 [144, 1, 1, 6]
000000 0c 2d d2 7f 2a 59 55 7f 78 e8 01 4d 7f 6f 63 1f
       12 45 -46 127 42 89 85 127 120 -24 1 77 127 111 99 31
000010 25 5c 24 28 53 2d 81 29 7f 09 f0 00 0a f5 42 53
       37 92 36 40 83 45 -127 41 127 9 -16 0 10 -11 66 83
000020 15 e1 81 51 cc fc bd 81 99 13 30 39 7f 0c 99 d1
       21 -31 -127 81 -52 -4 -67 -127 -103 19 48 57 127 12 -103 -47
000030 ee db 81 52 7f 28 3b 43 7f d5 f1 14 f1 ec 7f d6
       -18 -37 -127 82 127 40 59 67 127 -43 -15 20 -15 -20 127 -42
000040 f6 73 d3 df 81 e0 07 f8 21 2c 3d 16 81 2c 46 64
       -10 115 -45 -33 -127 -32 7 -8 33 44 61 22 -127 44 70 100
000050 62 2f 9a 7f bb 3e 14 81 fb ce 54 2b f7 01 e4 7f
       98 47 -102 127 -69 62 20 -127 -5 -50 84 43 -9 1 -28 127
000060 13 fd 53 1c 7f 8b 23 2a 49 e9 81 26 22 13 7f ab
       19 -3 83 28 127 -117 35 42 73 -23 -127 38 34 19 127 -85
000070 99 a6 29 20 69 7f ac 03 fe 81 12 44 21 48 c3 ca
       -103 -90 41 32 105 127 -84 3 -2 -127 18 68 33 72 -61 -54
000080 81 e3 1e 0a 39 33 5e 36 81 2c e2 17 e1 ba f2 81
       -127 -29 30 10 57 51 94 54 -127 44 -30 23 -31 -70 -14 -127
000090 30 4f 75 d8 7f 1f 12 37 3c 81 ec f5 3d 25 7f 3b
       48 79 117 -40 127 31 18 55 60 -127 -20 -11 61 37 127 59
0000a0 81 04 4d 28 a4 00 61 7f 3f 21 7f e4 f4 02 7f e6
       -127 4 77 40 -92 0 97 127 63 33 127 -28 -12 2 127 -26
0000b0 2e d6 a6 1c f1 f0 af 1f 7f 42 4a 56 fb 04 6a 7f
       46 -42 -90 28 -15 -16 -81 31 127 66 74 86 -5 4 106 127
0000c0 25 f4 83 1d 51 7f fa 7f 0a 37 09 2c 0e 04 c8 ef
       37 -12 -125 29 81 127 -6 127 10 55 9 44 14 4 -56 -17
0000d0 7f 22 03 f6 d0 4e 7f 11 1e 1d 0f cf 81 55 06 06
       127 34 3 -10 -48 78 127 17 30 29 15 -49 -127 85 6 6
0000e0 81 c4 78 3e 18 1f 00 cb 81 3f 57 78 7f cd a9 7e
       -127 -60 120 62 24 31 0 -53 -127 63 87 120 127 -51 -87 126
0000f0 4a 3a 6c c8 81 5b d7 d4 82 56 7f 52 7f 01 c9 fd
       74 58 108 -56 -127 91 -41 -44 -126 86 127 82 127 1 -55 -3

functional_11/functional_21/block2b_project_conv/Conv2D i1 [24, 1, 1, 144]
000000 06 f2 eb 06 fa 00 1c f0 14 0c fc 1a ea f1 01 f6
       6 -14 -21 6 -6 0 28 -16 20 12 -4 26 -22 -15 1 -10
000010 09 09 04 ee 09 01 15 fd 1b 0c 0c f5 1a fe 05 03
       9 9 4 -18 9 1 21 -3 27 12 12 -11 26 -2 5 3
000020 1d 09 06 02 f2 04 03 f0 f9 ed 05 10 03 0b 00 fd
       29 9 6 2 -14 4 3 -16 -7 -19 5 16 3 11 0 -3
000030 fb fc 06 1d fc fb 2c f7 16 08 fe 07 ef 15 00 1a
       -5 -4 6 29 -4 -5 44 -9 22 8 -2 7 -17 21 0 26
000040 06 14 0a 02 0a f8 f3 03 06 04 7f f8 0e ff 0d 07
       6 20 10 2 10 -8 -13 3 6 4 127 -8 14 -1 13 7
000050 0e fd 09 09 01 02 0f 01 05 06 fc 04 0e f4 13 02
       14 -3 9 9 1 2 15 1 5 6 -4 4 14 -12 19 2
000060 09 fb 19 03 07 05 f4 07 01 f2 f9 0b fb 03 f1 11
       9 -5 25 3 7 5 -12 7 1 -14 -7 11 -5 3 -15 17
000070 05 0c 09 07 f6 11 f9 e1 fd f9 35 fb 0e 01 fb 12
       5 12 9 7 -10 17 -7 -31 -3 -7 53 -5 14 1 -5 18
000080 03 fe 07 d5 ff 08 fb ff 04 cc 06 fa 07 06 29 12
       3 -2 7 -43 -1 8 -5 -1 4 -52 6 -6 7 6 41 18
000090 01 10 f1 e9 f9 f0 07 f9 dc 3d 07 e3 12 27 d5 10
       1 16 -15 -23 -7 -16 7 -7 -36 61 7 -29 18 39 -43 16
0000a0 10 0c e5 28 31 0e f3 dc 04 eb f6 14 f6 fb 01 f4
       16 12 -27 40 49 14 -13 -36 4 -21 -10 20 -10 -5 1 -12
0000b0 e1 09 f6 0b 23 4c 03 6d fc 0b 04 05 f1 fd 1b 58
       -31 9 -10 11 35 76 3 109 -4 11 4 5 -15 -3 27 88
0000c0 05 d9 19 ea 01 e3 d3 01 2f 04 fa ff fd d3 f5 06
       5 -39 25 -22 1 -29 -45 1 47 4 -6 -1 -3 -45 -11 6
0000d0 06 ed 81 15 51 15 cb 05 08 5e 29 23 ed f5 f0 fd
       6 -19 -127 21 81 21 -53 5 8 94 41 35 -19 -11 -16 -3
0000e0 04 30 f4 09 0a 2e eb f4 f7 59 d7 eb fa 0e 0a 30
       4 48 -12 9 10 46 -21 -12 -9 89 -41 -21 -6 14 10 48
0000f0 01 2f 03 d0 0c e6 12 db f7 1a e8 13 ec 03 00 e7
       1 47 3 -48 12 -26 18 -37 -9 26 -24 19 -20 3 0 -25

functional_11/functional_21/block3a_expand_conv/Conv2D i1 [144, 1, 1, 24]
000000 13 ff a0 67 bb 63 22 08 ea ff f7 e8 f7 ed 81 cc
       19 -1 -96 103 -69 99 34 8 -22 -1 -9 -24 -9 -19 -127 -52
000010 f5 fa 09 2c f3 0a 2c 68 1e 02 f4 fe 12 14 f1 aa
       -11 -6 9 44 -13 10 44 104 30 2 -12 -2 18 20 -15 -86
000020 e6 39 08 05 da 10 d3 01 02 81 fa eb 16 22 f9 0c
       -26 57 8 5 -38 16 -45 1 2 -127 -6 -21 22 34 -7 12
000030 fd 05 01 08 eb da 3c 0c 07 00 0d bf 23 7f f7 f6
       -3 5 1 8 -21 -38 60 12 7 0 13 -65 35 127 -9 -10
000040 e6 fa 06 22 18 fe 19 29 bb df 81 e9 47 18 d4 f0
       -26 -6 6 34 24 -2 25 41 -69 -33 -127 -23 71 24 -44 -16
000050 f3 01 24 f9 0e f2 36 d5 a8 ea 73 15 19 04 01 fa
       -13 1 36 -7 14 -14 54 -43 -88 -22 115 21 25 4 1 -6
000060 7d b9 13 1f 67 db 01 e3 db 29 f6 7f 27 bb 9a 2a
       125 -71 19 31 103 -37 1 -29 -37 41 -10 127 39 -69 -102 42
000070 e6 17 12 e9 3c f7 c4 23 fc 09 08 fc bf e3 09 0c
       -26 23 18 -23 60 -9 -60 35 -4 9 8 -4 -65 -29 9 12
000080 bb eb d6 ed 30 e6 c1 14 49 e9 7f 0c e3 f2 e5 c0
       -69 -21 -42 -19 48 -26 -63 20 73 -23 127 12 -29 -14 -27 -64
000090 0d f0 01 2a 0e 15 c7 0d d4 04 0e f0 d8 81 33 1b
       13 -16 1 42 14 21 -57 13 -44 4 14 -16 -40 -127 51 27
0000a0 16 01 e9 e8 c4 03 fc c7 f9 fd ff 14 03 f2 fa 46
       22 1 -23 -24 -60 3 -4 -57 -7 -3 -1 20 3 -14 -6 70
0000b0 fb 7f f3 02 f1 07 08 d5 fb 19 08 00 0d 68 fd f0
       -5 127 -13 2 -15 7 8 -43 -5 25 8 0 13 104 -3 -16
0000c0 10 05 1e 19 d2 f4 e9 6a 0b b9 01 61 12 ff e9 06
       16 5 30 25 -46 -12 -23 106 11 -71 1 97 18 -1 -23 6
0000d0 cd 81 e9 09 f5 c0 f3 ec 15 06 2e d9 cf 0b 1c 84
       -51 -127 -23 9 -11 -64 -13 -20 21 6 46 -39 -49 11 28 -124
0000e0 e6 34 0e ef fd ed dc fe 5d 81 8e f5 00 fd fb e0
       -26 52 14 -17 -3 -19 -36 -2 93 -127 -114 -11 0 -3 -5 -32
0000f0 27 f5 05 4b 01 1a be fb ce 11 1e f2 dc 81 3b 1b
       39 -11 5 75 1 26 -66 -5 -50 17 30 -14 -36 -127 59 27

functional_11/functional_21/block3a_se_reduce/Conv2D i1 [6, 1, 1, 144]
000000 08 fe fa 0c 38 08 0b f9 c9 0e 03 fd 0c e8 33 bb
       8 -2 -6 12 56 8 11 -7 -55 14 3 -3 12 -24 51 -69
000010 05 dd e7 09 ed 2f f5 2b ee ed 08 0a 00 81 f6 19
       5 -35 -25 9 -19 47 -11 43 -18 -19 8 10 0 -127 -10 25
000020 0d 10 de 33 f4 01 fb 0d fa 05 ee 21 1b e9 1f 11
       13 16 -34 51 -12 1 -5 13 -6 5 -18 33 27 -23 31 17
000030 f8 16 b2 1b 02 1d df 05 08 fd 2e 10 fa c9 02 20
       -8 22 -78 27 2 29 -33 5 8 -3 46 16 -6 -55 2 32
000040 da 00 11 b8 09 ea c4 fe e7 d2 09 0f 13 fb cb 10
       -38 0 17 -72 9 -22 -60 -2 -25 -46 9 15 19 -5 -53 16
000050 fd ea f5 13 0d dc f1 e6 f3 0d ff ee ff 0a e1 ef
       -3 -22 -11 19 13 -36 -15 -26 -13 13 -1 -18 -1 10 -31 -17
000060 05 d2 0c e2 fa f9 eb a4 e7 09 f2 12 f6 36 f5 fa
       5 -46 12 -30 -6 -7 -21 -92 -25 9 -14 18 -10 54 -11 -6
000070 21 09 ec f3 1b f7 f7 14 0d dd 09 dc d7 f2 2c 1c
       33 9 -20 -13 27 -9 -9 20 13 -35 9 -36 -41 -14 44 28
000080 fd fd 0b fe 35 f9 e1 08 ff 15 de f0 ca 0c e3 e9
       -3 -3 11 -2 53 -7 -31 8 -1 21 -34 -16 -54 12 -29 -23
000090 f8 fb fc 09 13 0d ff c4 fe ee fb f8 df e3 20 2f
       -8 -5 -4 9 19 13 -1 -60 -2 -18 -5 -8 -33 -29 32 47
0000a0 12 22 f1 f6 08 2d 01 34 f0 03 02 dd 02 f5 d3 08
       18 34 -15 -10 8 45 1 52 -16 3 2 -35 2 -11 -45 8
0000b0 0c f2 0f 17 c7 e8 e8 ee ff f2 ee 02 fe e0 fc d8
       12 -14 15 23 -57 -24 -24 -18 -1 -14 -18 2 -2 -32 -4 -40
0000c0 e5 fd 42 1e fc f4 f1 ff 07 f8 9b 00 f3 e6 ee f9
       -27 -3 66 30 -4 -12 -15 -1 7 -8 -101 0 -13 -26 -18 -7
0000d0 e9 11 16 fe 08 22 e6 22 f1 ec 12 0f f8 fe f9 02
       -23 17 22 -2 8 34 -26 34 -15 -20 18 15 -8 -2 -7 2
0000e0 07 fe 0a 03 0d 15 81 11 09 f4 fe fc e4 00 e9 02
       7 -2 10 3 13 21 -127 17 9 -12 -2 -4 -28 0 -23 2
0000f0 ef d0 d1 f5 b9 fb cf db 25 00 ee 0f 0b 44 cc e5
       -17 -48 -47 -11 -71 -5 -49 -37 37 0 -18 15 11 68 -52 -27

functional_11/functional_21/block3a_se_expand/Conv2D i1 [144, 1, 1, 6]
000000 51 4f 2b 68 7f f5 dc 81 be da cd f6 1d fe b5 0a
       81 79 43 104 127 -11 -36 -127 -66 -38 -51 -10 29 -2 -75 10
000010 81 09 de 0d ee 81 24 09 06 9c c7 2e b8 7f e1 f6
       -127 9 -34 13 -18 -127 36 9 6 -100 -57 46 -72 127 -31 -10
000020 21 14 81 9b f0 bc 81 22 b7 08 c0 81 d5 e2 d9 4f
       33 20 -127 -101 -16 -68 -127 34 -73 8 -64 -127 -43 -30 -39 79
000030 c8 c4 d8 df 81 1a 04 d2 da 5c ed 7f f7 bb c4 ee
       -56 -60 -40 -33 -127 26 4 -46 -38 92 -19 127 -9 -69 -60 -18
000040 81 12 7e 40 16 89 7f 96 16 78 b1 81 e7 d5 f9 d0
       -127 18 126 64 22 -119 127 -106 22 120 -79 -127 -25 -43 -7 -48
000050 7f 33 b2 ef 77 45 db cd 81 86 99 0e e0 3a 1c 7f
       127 51 -78 -17 119 69 -37 -51 -127 -122 -103 14 -32 58 28 127
000060 00 9d bd 15 81 54 69 f9 d8 73 81 64 0a 7c e1 b2
       0 -99 -67 21 -127 84 105 -7 -40 115 -127 100 10 124 -31 -78
000070 3d 81 e3 f0 ee ca f0 7f 05 b4 fd d4 6a 7f 47 39
       61 -127 -29 -16 -18 -54 -16 127 5 -76 -3 -44 106 127 71 57
000080 dc e8 e3 81 25 81 b4 be 99 b4 12 00 81 eb 04 32
       -36 -24 -29 -127 37 -127 -76 -66 -103 -76 18 0 -127 -21 4 50
000090 f8 de 8a 45 ad 81 ca e1 3d f3 d0 81 bf 81 b6 8c
       -8 -34 -118 69 -83 -127 -54 -31 61 -13 -48 -127 -65 -127 -74 -116
0000a0 b1 d1 2b 7f fb a0 f5 fb 22 c9 81 f0 87 27 ae e9
       -79 -47 43 127 -5 -96 -11 -5 34 -55 -127 -16 -121 39 -82 -23
0000b0 f3 bb 81 ec f6 81 c9 83 c5 3d 25 98 e7 5e 81 f5
       -13 -69 -127 -20 -10 -127 -55 -125 -59 61 37 -104 -25 94 -127 -11
0000c0 81 d2 ed 87 e3 65 50 b8 34 13 39 7f 27 f9 81 68
       -127 -46 -19 -121 -29 101 80 -72 52 19 57 127 39 -7 -127 104
0000d0 df b7 0d cb 92 59 81 1a 10 81 bd da d6 46 c5 81
       -33 -73 13 -53 -110 89 -127 26 16 -127 -67 -38 -42 70 -59 -127
0000e0 da c4 fb 6e ec 81 d6 ca af 21 df e6 e4 20 94 7f
       -38 -60 -5 110 -20 -127 -42 -54 -81 33 -33 -26 -28 32 -108 127
0000f0 32 81 e8 00 eb 27 11 b2 e2 23 81 ad db fd e4 cc
       50 -127 -24 0 -21 39 17 -78 -30 35 -127 -83 -37 -3 -28 -52

functional_11/functional_21/block3a_project_conv/Conv2D i1 [40, 1, 1, 144]
000000 f2 f3 28 24 b9 ef 1a e1 f4 ff 11 14 27 ca 1b 3b
       -14 -13 40 36 -71 -17 26 -31 -12 -1 17 20 39 -54 27 59
000010 19 d8 08 05 fe 15 24 0c de 3a 17 27 2e ee c3 fc
       25 -40 8 5 -2 21 36 12 -34 58 23 39 46 -18 -61 -4
000020 06 fc e9 12 00 13 fb 03 05 07 06 e3 0e bd ff e1
       6 -4 -23 18 0 19 -5 3 5 7 6 -29 14 -67 -1 -31
000030 ca 10 04 d7 20 04 20 f7 fa 08 ec 13 0c 00 41 ec
       -54 16 4 -41 32 4 32 -9 -6 8 -20 19 12 0 65 -20
000040 cd 23 03 1c f9 ed f8 1e fd 1e e4 0b 12 10 c5 0a
       -51 35 3 28 -7 -19 -8 30 -3 30 -28 11 18 16 -59 10
000050 1b e7 0c 15 09 07 20 d0 20 f9 f6 fe e5 0e d2 02
       27 -25 12 21 9 7 32 -48 32 -7 -10 -2 -27 14 -46 2
000060 11 d5 fd c4 f8 21 03 07 eb 5f 02 0c 0f 17 e0 ef
       17 -43 -3 -60 -8 33 3 7 -21 95 2 12 15 23 -32 -17
000070 e6 24 d6 0e c1 33 0e 06 13 f0 f0 04 e1 ff fe 06
       -26 36 -42 14 -63 51 14 6 19 -16 -16 4 -31 -1 -2 6
000080 11 1d fe 14 01 18 f5 4f ba 1d 01 fc 17 45 81 f8
       17 29 -2 20 1 24 -11 79 -70 29 1 -4 23 69 -127 -8
000090 e7 20 07 e4 2f fa f1 04 f1 10 ef fa 07 05 fb 2d
       -25 32 7 -28 47 -6 -15 4 -15 16 -17 -6 7 5 -5 45
0000a0 05 07 fa 11 14 fe fe f2 37 0f fe 14 fb c4 3b f7
       5 7 -6 17 20 -2 -2 -14 55 15 -2 20 -5 -60 59 -9
0000b0 03 e6 ea f2 0f 10 0b 0e 07 d9 0d ee fd e2 1b 04
       3 -26 -22 -14 15 16 11 14 7 -39 13 -18 -3 -30 27 4
0000c0 07 ff 05 7f fb df ee f8 f7 f4 0f fe 16 f9 17 16
       7 -1 5 127 -5 -33 -18 -8 -9 -12 15 -2 22 -7 23 22
0000d0 d4 09 00 88 14 0f f7 2f f7 49 0e fe 05 eb ef 0b
       -44 9 0 -120 20 15 -9 47 -9 73 14 -2 5 -21 -17 11
0000e0 dc 08 da 00 02 f2 f8 f9 04 0a fb 01 12 00 ee 10
       -36 8 -38 0 2 -14 -8 -7 4 10 -5 1 18 0 -18 16
0000f0 0a f5 23 fe f7 69 08 05 1c 1d f9 07 00 f0 f9 1a
       10 -11 35 -2 -9 105 8 5 28 29 -7 7 0 -16 -7 26

functional_11/functional_21/block3b_expand_conv/Conv2D i1 [240, 1, 1, 40]
000000 bf 18 d1 27 21 f4 db 39 ed fb 15 84 21 20 be 15
       -65 24 -47 39 33 -12 -37 57 -19 -5 21 -124 33 32 -66 21
000010 06 f9 b2 fb e0 2a 40 22 68 11 00 7f 1a cd 3e 20
       6 -7 -78 -5 -32 42 64 34 104 17 0 127 26 -51 62 32
000020 14 de f3 1d c6 02 04 bf cc cb 31 ec 15 f4 01 f5
       20 -34 -13 29 -58 2 4 -65 -52 -53 49 -20 21 -12 1 -11
000030 d1 19 bd 01 1e 7f 0b e7 e6 1f 1b 09 fb 50 d9 f1
       -47 25 -67 1 30 127 11 -25 -26 31 27 9 -5 80 -39 -15
000040 0c c5 eb 6a 06 32 e5 16 ea ea 05 ff 1c f3 05 ea
       12 -59 -21 106 6 50 -27 22 -22 -22 5 -1 28 -13 5 -22
000050 0a 1f 9f 4e d2 53 03 28 f6 f8 7f 21 f3 1c 06 c3
       10 31 -97 78 -46 83 3 40 -10 -8 127 33 -13 28 6 -61
000060 d0 38 f1 0f 10 f0 2d 1a 24 72 d2 9b 0c ee 28 21
       -48 56 -15 15 16 -16 45 26 36 114 -46 -101 12 -18 40 33
000070 eb f7 f9 e5 2f c4 fe ff ea f7 e5 26 ed 07 21 fc
       -21 -9 -7 -27 47 -60 -2 -1 -22 -9 -27 38 -19 7 33 -4
000080 0d 03 d1 a3 2a c8 e3 24 10 f7 2c e1 47 14 fb 81
       13 3 -47 -93 42 -56 -29 36 16 -9 44 -31 71 20 -5 -127
000090 ee f3 52 bb e7 01 ca 89 10 0c fb 0b ed 0e 02 d9
       -18 -13 82 -69 -25 1 -54 -119 16 12 -5 11 -19 14 2 -39
0000a0 fa f9 d3 08 38 e2 b0 10 fc 3a 2c f3 e9 17 f2 00
       -6 -7 -45 8 56 -30 -80 16 -4 58 44 -13 -23 23 -14 0
0000b0 49 db 1f f5 2f 5a f0 e6 04 1f f1 04 05 f1 42 e0
       73 -37 31 -11 47 90 -16 -26 4 31 -15 4 5 -15 66 -32
0000c0 b7 b3 ed 17 81 cc 45 30 01 7f 35 f3 13 ad f7 20
       -73 -77 -19 23 -127 -52 69 48 1 127 53 -13 19 -83 -9 32
0000d0 d4 12 f1 e8 40 2a ef bb ca 0c 10 ed d7 26 de 2c
       -44 18 -15 -24 64 42 -17 -69 -54 12 16 -19 -41 38 -34 44
0000e0 11 bc 09 8e 0c 36 2e 18 ef d9 d3 02 f6 dd ef f7
       17 -68 9 -114 12 54 46 24 -17 -39 -45 2 -10 -35 -17 -9
0000f0 12 01 d6 28 fc da 31 a2 25 f1 ec cd 2b e4 25 50
       18 1 -42 40 -4 -38 49 -94 37 -15 -20 -51 43 -28 37 80

functional_11/functional_21/block3b_se_reduce/Conv2D i1 [10, 1, 1, 240]
000000 03 f0 02 fb 0d f1 04 f7 fc 00 02 03 fb f0 ff f0
       3 -16 2 -5 13 -15 4 -9 -4 0 2 3 -5 -16 -1 -16
000010 0b 27 ed 00 01 08 fe f4 f4 f4 f8 ff 06 12 0e 16
       11 39 -19 0 1 8 -2 -12 -12 -12 -8 -1 6 18 14 22
000020 f9 07 f5 0f 0b 05 fc fe 05 fb f1 be ec fd 01 13
       -7 7 -11 15 11 5 -4 -2 5 -5 -15 -66 -20 -3 1 19
000030 04 03 fa 06 0d 05 f4 03 01 05 fa fa 10 0a 01 fa
       4 3 -6 6 13 5 -12 3 1 5 -6 -6 16 10 1 -6
000040 fe 07 09 f9 f9 f9 10 ff e4 03 ce f4 0a 06 05 0b
       -2 7 9 -7 -7 -7 16 -1 -28 3 -50 -12 10 6 5 11
000050 05 02 fc eb 05 f8 fa 00 09 ec 02 0c e8 eb 08 ff
       5 2 -4 -21 5 -8 -6 0 9 -20 2 12 -24 -21 8 -1
000060 07 f1 f3 ed 10 ff fc 0a 09 f7 09 f7 0d f7 e1 02
       7 -15 -13 -19 16 -1 -4 10 9 -9 9 -9 13 -9 -31 2
000070 03 01 f7 f6 02 f9 0b 02 ff 07 ff f9 00 0a 08 18
       3 1 -9 -10 2 -7 11 2 -1 7 -1 -7 0 10 8 24
000080 10 09 08 f7 00 09 f8 03 ff fd 08 f7 fb 06 04 f9
       16 9 8 -9 0 9 -8 3 -1 -3 8 -9 -5 6 4 -7
000090 03 f9 1f f5 0a fb f6 0b fa fb 06 21 f8 81 05 fd
       3 -7 31 -11 10 -5 -10 11 -6 -5 6 33 -8 -127 5 -3
0000a0 0b 03 f0 09 01 29 05 03 0c 04 08 0b 02 eb 07 0d
       11 3 -16 9 1 41 5 3 12 4 8 11 2 -21 7 13
0000b0 fd fa fe fe f4 f1 03 10 03 07 fc 13 12 07 06 0d
       -3 -6 -2 -2 -12 -15 3 16 3 7 -4 19 18 7 6 13
0000c0 ff 0b fe 13 10 0f 14 fc 05 0c 12 f8 f8 08 02 fa
       -1 11 -2 19 16 15 20 -4 5 12 18 -8 -8 8 2 -6
0000d0 f2 f8 10 00 f6 f7 00 fe 0c f6 fd f9 05 13 f7 fc
       -14 -8 16 0 -10 -9 0 -2 12 -10 -3 -7 5 19 -9 -4
0000e0 f7 fc ff fd d5 0c 07 0b 01 fc ff fa fb dc 08 fe
       -9 -4 -1 -3 -43 12 7 11 1 -4 -1 -6 -5 -36 8 -2
0000f0 fb 00 f0 e0 19 ef f2 10 f4 fb 28 06 f6 db 52 34
       -5 0 -16 -32 25 -17 -14 16 -12 -5 40 6 -10 -37 82 52

functional_11/functional_21/block3b_se_expand/Conv2D i1 [240, 1, 1, 10]
000000 ff eb 4e cc 7f dc c2 11 21 cc 21 f1 95 ee 7f dc
       -1 -21 78 -52 127 -36 -62 17 33 -52 33 -15 -107 -18 127 -36
000010 99 eb 05 a0 0f 12 89 1a f8 75 16 f5 cf 81 f7 cd
       -103 -21 5 -96 15 18 -119 26 -8 117 22 -11 -49 -127 -9 -51
000020 d8 81 31 f9 48 f7 c7 87 f8 13 08 ed 7f a0 1e 06
       -40 -127 49 -7 72 -9 -57 -121 -8 19 8 -19 127 -96 30 6
000030 e2 0a e9 04 7f f8 4c fe a9 fc a5 4f fc e7 2b c3
       -30 10 -23 4 127 -8 76 -2 -87 -4 -91 79 -4 -25 43 -61
000040 12 7f f4 04 1a ab c3 ef 91 db 1d 81 ca 32 c2 9b
       18 127 -12 4 26 -85 -61 -17 -111 -37 29 -127 -54 50 -62 -101
000050 0c 38 0c 06 29 5e 3c 34 dd 81 0f f6 d5 16 7f 2c
       12 56 12 6 41 94 60 52 -35 -127 15 -10 -43 22 127 44
000060 f4 ff e7 96 fa f0 fb f8 03 4e e2 f8 11 81 16 da
       -12 -1 -25 -106 -6 -16 -5 -8 3 78 -30 -8 17 -127 22 -38
000070 37 dc e6 56 ea 35 f3 81 fd 04 91 0f 1d 81 0b f3
       55 -36 -26 86 -22 53 -13 -127 -3 4 -111 15 29 -127 11 -13
000080 32 6a 27 fa cd a0 09 34 98 1d e2 81 b5 7f 04 0b
       50 106 39 -6 -51 -96 9 52 -104 29 -30 -127 -75 127 4 11
000090 11 fa c7 ed ed 0f 41 c9 cd 81 16 3f fd 1c f2 ad
       17 -6 -57 -19 -19 15 65 -55 -51 -127 22 63 -3 28 -14 -83
0000a0 29 07 d2 e2 0e ba 81 3e d0 bd bd d7 23 54 7c 81
       41 7 -46 -30 14 -70 -127 62 -48 -67 -67 -41 35 84 124 -127
0000b0 1b 44 e2 31 1c 08 f1 e8 7f 02 e1 00 df bc 40 3e
       27 68 -30 49 28 8 -15 -24 127 2 -31 0 -33 -68 64 62
0000c0 cc 12 f8 81 58 38 eb 2e db 14 1f d6 56 5e 36 1d
       -52 18 -8 -127 88 56 -21 46 -37 20 31 -42 86 94 54 29
0000d0 e2 81 07 81 e7 8d 5c 39 2f d7 b9 b7 fd 19 f3 24
       -30 -127 7 -127 -25 -115 92 57 47 -41 -71 -73 -3 25 -13 36
0000e0 3f 78 e0 27 26 81 01 e0 0e f2 39 81 cd 23 ea f1
       63 120 -32 39 38 -127 1 -32 14 -14 57 -127 -51 35 -22 -15
0000f0 29 23 7f 1f 6e d9 db 2f 22 12 f1 03 14 f6 7f c2
       41 35 127 31 110 -39 -37 47 34 18 -15 3 20 -10 127 -62

functional_11/functional_21/block3b_project_conv/Conv2D i1 [40, 1, 1, 240]
000000 06 da 1e e6 18 fb 1e 11 21 1b c1 ff ad fc 3b d3
       6 -38 30 -26 24 -5 30 17 33 27 -63 -1 -83 -4 59 -45
000010 38 e9 af 1f 16 de 52 f5 9d 31 dd e0 18 02 c5 12
       56 -23 -81 31 22 -34 82 -11 -99 49 -35 -32 24 2 -59 18
000020 17 fe ab 34 ca ee 08 ec de 0a 01 2f 1e ef d6 f7
       23 -2 -85 52 -54 -18 8 -20 -34 10 1 47 30 -17 -42 -9
000030 07 bd f5 0b b1 0c f1 06 e7 c9 10 fc e0 14 e7 d4
       7 -67 -11 11 -79 12 -15 6 -25 -55 16 -4 -32 20 -25 -44
000040 2a d8 21 0a 5e d8 e9 3d 06 05 35 eb d7 10 13 e9
       42 -40 33 10 94 -40 -23 61 6 5 53 -21 -41 16 19 -23
000050 07 02 5c 06 14 c7 6b 3b ca 01 b5 09 e1 46 d1 09
       7 2 92 6 20 -57 107 59 -54 1 -75 9 -31 70 -47 9
000060 fd a5 05 04 03 ea 0e 4b c8 18 eb 28 01 f8 f6 16
       -3 -91 5 4 3 -22 14 75 -56 24 -21 40 1 -8 -10 22
000070 d9 16 2c f6 31 47 f4 2f 15 1f bc 44 19 e6 c2 c6
       -39 22 44 -10 49 71 -12 47 21 31 -68 68 25 -26 -62 -58
000080 11 16 0b 25 06 04 e5 d5 15 ab f0 10 3f 03 15 36
       17 22 11 37 6 4 -27 -43 21 -85 -16 16 63 3 21 54
000090 e1 12 fb 0d 03 e6 02 c2 44 14 f3 36 1c 65 f9 ec
       -31 18 -5 13 3 -26 2 -62 68 20 -13 54 28 101 -7 -20
0000a0 d9 cf 02 cf 1f 6d e7 ff e9 5c 09 10 f3 06 22 32
       -39 -49 2 -49 31 109 -25 -1 -23 92 9 16 -13 6 34 50
0000b0 ce f5 23 e5 f0 10 c6 ec 08 ef 0d a9 fd fc e9 f2
       -50 -11 35 -27 -16 16 -58 -20 8 -17 13 -87 -3 -4 -23 -14
0000c0 0d e7 16 05 c2 18 4c 0f 20 26 0d 2d 2c 03 c8 fb
       13 -25 22 5 -62 24 76 15 32 38 13 45 44 3 -56 -5
0000d0 fc 04 02 e1 27 1a 1f 15 0b e5 19 53 1b 81 34 0d
       -4 4 2 -31 39 26 31 21 11 -27 25 83 27 -127 52 13
0000e0 d5 f5 f4 1e 25 fe 27 fb 00 14 08 a3 17 ec 07 0d
       -43 -11 -12 30 37 -2 39 -5 0 20 8 -93 23 -20 7 13
0000f0 1e 23 28 f9 fd 2d 18 0b 08 00 42 e9 0e 0a 00 0d
       30 35 40 -7 -3 45 24 11 8 0 66 -23 14 10 0 13

functional_11/functional_21/block4a_expand_conv/Conv2D i1 [240, 1, 1, 40]
000000 f4 18 0f 14 e6 e6 3f 0a be ed eb 69 ac 33 16 08
       -12 24 15 20 -26 -26 63 10 -66 -19 -21 105 -84 51 22 8
000010 f2 c1 07 f7 ef e7 f9 7f 04 f0 e8 41 47 11 1f fc
       -14 -63 7 -9 -17 -25 -7 127 4 -16 -24 65 71 17 31 -4
000020 15 0c e8 1a d1 f3 f7 04 0a 11 05 2e 22 e1 24 ca
       21 12 -24 26 -47 -13 -9 4 10 17 5 46 34 -31 36 -54
000030 26 db 22 21 0d eb 15 ec e1 17 27 19 f7 ce 0b f5
       38 -37 34 33 13 -21 21 -20 -31 23 39 25 -9 -50 11 -11
000040 1a d0 34 32 f2 59 d7 13 48 1d 81 bb 23 fd da 25
       26 -48 52 50 -14 89 -41 19 72 29 -127 -69 35 -3 -38 37
000050 50 0b 01 2f ca 01 db 1a 12 d6 04 9b c3 00 e3 06
       80 11 1 47 -54 1 -37 26 18 -42 4 -101 -61 0 -29 6
000060 7f 58 05 d4 1a 7d 12 29 ee dc 2c ca fc 02 d3 9b
       127 88 5 -44 26 125 18 41 -18 -36 44 -54 -4 2 -45 -101
000070 35 d7 de 1b 79 e5 31 e9 0e 30 e7 f0 1f 20 f7 fe
       53 -41 -34 27 121 -27 49 -23 14 48 -25 -16 31 32 -9 -2
000080 06 32 1a a1 1d 56 e5 01 33 81 f8 16 20 07 1c f3
       6 50 26 -95 29 86 -27 1 51 -127 -8 22 32 7 28 -13
000090 0f 36 f7 28 e4 e4 05 2e 5b df d9 fb b7 c3 be 04
       15 54 -9 40 -28 -28 5 46 91 -33 -39 -5 -73 -61 -66 4
0000a0 20 02 10 0a 00 de 3d 10 f6 f9 de 2a 0f e9 35 02
       32 2 16 10 0 -34 61 16 -10 -7 -34 42 15 -23 53 2
0000b0 d1 55 6d 03 15 c0 7f f2 13 e3 e7 17 d0 e2 1d 16
       -47 85 109 3 21 -64 127 -14 19 -29 -25 23 -48 -30 29 22
0000c0 28 04 14 32 3f 35 05 e5 1c 22 38 25 81 b1 0c 0e
       40 4 20 50 63 53 5 -27 28 34 56 37 -127 -79 12 14
0000d0 dd e1 8d c3 16 d3 f6 fd 10 d3 f8 0c d2 12 ea 15
       -35 -31 -115 -61 22 -45 -10 -3 16 -45 -8 12 -46 18 -22 21
0000e0 f0 27 0f 00 04 d1 17 28 e3 e4 ab e3 29 f6 22 fa
       -16 39 15 0 4 -47 23 40 -29 -28 -85 -29 41 -10 34 -6
0000f0 e7 20 fc e3 22 13 02 f8 05 f3 08 40 ad 0f 05 11
       -25 32 -4 -29 34 19 2 -8 5 -13 8 64 -83 15 5 17

functional_11/functional_21/block1a_bn/FusedBatchNormV3;functional_11/functional_21/block1a_dwconv/depthwise;functional_11/functional_21/block1a_se_expand/Conv2D i1 [1, 3, 3, 32]
000000 c4 f4 f2 f7 a1 23 67 16 e3 1b f9 81 7f 5f 69 fa
       -60 -12 -14 -9 -95 35 103 22 -29 27 -7 -127 127 95 105 -6
000010 04 f7 7f 00 cd ff 04 7f f6 ef f9 d2 09 fb fa 01
       4 -9 127 0 -51 -1 4 127 -10 -17 -7 -46 9 -5 -6 1
000020 b9 81 f5 f8 96 e7 28 da 2a ed 81 00 2a 7f 7f f0
       -71 -127 -11 -8 -106 -25 40 -38 42 -19 -127 0 42 127 127 -16
000030 f7 81 97 e8 10 81 eb 2c fb 14 e3 00 20 f9 eb ff
       -9 -127 -105 -24 16 -127 -21 44 -5 20 -29 0 32 -7 -21 -1
000040 7f 03 f6 0a 51 f3 ad 20 fe fd 03 14 c2 0c be fd
       127 3 -10 10 81 -13 -83 32 -2 -3 3 20 -62 12 -66 -3
000050 03 c5 e1 13 b9 06 04 a4 f7 e4 1e ff ce 05 20 fc
       3 -59 -31 19 -71 6 4 -92 -9 -28 30 -1 -50 5 32 -4
000060 f8 f9 08 7f 81 70 3a 43 bb 81 04 08 37 b5 6d f6
       -8 -7 8 127 -127 112 58 67 -69 -127 4 8 55 -75 109 -10
000070 f0 03 47 d0 bd 03 da 15 ee be dd 7f 31 fe a5 04
       -16 3 71 -48 -67 3 -38 21 -18 -66 -35 127 49 -2 -91 4
000080 c0 e8 7f 8c b5 81 a0 81 81 2f fa 0b e6 a6 3d 7f
       -64 -24 127 -116 -75 -127 -96 -127 -127 47 -6 11 -26 -90 61 127
000090 7f 53 cb b5 81 02 97 08 7f 7f 81 ed 7f 7f d8 81
       127 83 -53 -75 -127 2 -105 8 127 127 -127 -19 127 127 -40 -127
0000a0 47 fa fe fd 28 15 e6 37 fb 09 06 09 c3 e5 c6 f2
       71 -6 -2 -3 40 21 -26 55 -5 9 6 9 -61 -27 -58 -14
0000b0 f3 26 f5 7f 44 02 fa eb ed f1 16 d8 e9 07 7f 02
       -13 38 -11 127 68 2 -6 -21 -19 -15 22 -40 -23 7 127 2
0000c0 0d 02 f5 0e 56 0e 81 02 fb 08 04 21 b7 f8 c3 fa
       13 2 -11 14 86 14 -127 2 -5 8 4 33 -73 -8 -61 -6
0000d0 fa ff fc 06 b2 00 1e b3 f0 fe 35 f7 bb f6 02 fd
       -6 -1 -4 6 -78 0 30 -77 -16 -2 53 -9 -69 -10 2 -3
0000e0 fc 11 e6 f5 27 f5 e9 0d 00 01 00 0f cd c9 c3 f6
       -4 17 -26 -11 39 -11 -23 13 0 1 0 15 -51 -55 -61 -10
0000f0 f9 2a 00 f2 07 05 7f d7 fb 09 f8 f3 f6 12 ec 09
       -7 42 0 -14 7 5 127 -41 -5 9 -8 -13 -10 18 -20 9

functional_11/functional_21/block2a_bn/FusedBatchNormV3;functional_11/functional_21/block2a_dwconv/depthwise;functional_11/functional_21/block2a_se_expand/Conv2D i1 [1, 3, 3, 96]
000000 d6 fd 81 2b c1 a8 4d 40 ad 4b b4 2a bd 27 29 d9
       -42 -3 -127 43 -63 -88 77 64 -83 75 -76 42 -67 39 41 -39
000010 b8 3a 13 40 3a 3a 19 06 fe 22 14 29 c9 d5 2a a4
       -72 58 19 64 58 58 25 6 -2 34 20 41 -55 -43 42 -92
000020 5e f9 c4 41 21 e0 b1 42 e9 25 6d 8f eb 52 48 0b
       94 -7 -60 65 33 -32 -79 66 -23 37 109 -113 -21 82 72 11
000030 d6 b9 ce 28 ce 09 e5 39 4a 43 98 ff 2a db 14 ad
       -42 -71 -50 40 -50 9 -27 57 74 67 -104 -1 42 -37 20 -83
000040 3b 25 58 09 54 fe 2f 0f 5b 08 e8 81 33 4a ca c5
       59 37 88 9 84 -2 47 15 91 8 -24 -127 51 74 -54 -59
000050 91 7f 06 ee a9 42 3a ff ed 3c 1d 5a e6 e2 d0 af
       -111 127 6 -18 -87 66 58 -1 -19 60 29 90 -26 -30 -48 -81
000060 de 01 01 a1 9e 08 8f 3c 96 5a 81 6a 8b 28 b5 a8
       -34 1 1 -95 -98 8 -113 60 -106 90 -127 106 -117 40 -75 -88
000070 b8 62 2d 44 4e db 49 24 35 72 35 7f 8e 4c 62 a4
       -72 98 45 68 78 -37 73 36 53 114 53 127 -114 76 98 -92
000080 7f fc bc 5a b5 31 81 6b 4b 40 7f ad de 81 69 23
       127 -4 -68 90 -75 49 -127 107 75 64 127 -83 -34 -127 105 35
000090 c6 bd 91 1b 29 be 81 9d 7f 6f 12 cb 62 7f 2f 81
       -58 -67 -111 27 41 -66 -127 -99 127 111 18 -53 98 127 47 -127
0000a0 70 15 64 1d 6c fc ad 21 0a c1 46 64 a7 3c 92 7f
       112 21 100 29 108 -4 -83 33 10 -63 70 100 -89 60 -110 127
0000b0 7f b2 cb e6 81 4b 7f 1f 2e 0b dd d9 c3 03 e6 f8
       127 -78 -53 -26 -127 75 127 31 46 11 -35 -39 -61 3 -26 -8
0000c0 c4 fd 01 2b f2 47 19 b5 c4 25 cf 52 c0 19 15 e4
       -60 -3 1 43 -14 71 25 -75 -60 37 -49 82 -64 25 21 -28
0000d0 d9 31 60 28 24 06 1a f3 47 44 2f 35 e6 de 44 fb
       -39 49 96 40 36 6 26 -13 71 68 47 53 -26 -34 68 -5
0000e0 2b 0a f2 10 37 ec d0 25 d6 13 44 0e c6 e9 3c 82
       43 10 -14 16 55 -20 -48 37 -42 19 68 14 -58 -23 60 -126
0000f0 d2 fe b3 fa 0b 98 a5 2d 33 39 31 15 7f c1 36 c9
       -46 -2 -77 -6 11 -104 -91 45 51 57 49 21 127 -63 54 -55
