android/app/src/assets/tflite_int8.tflite (tflite, 90640 bytes, 18 tensors)

functional_5/functional_1/dense/MatMul i1 [64, 144] scale=0.0031536883 zero_point=0
00000000: e51d 0ace 2023 cdf9 d5f7 24fc ecbe efcd
00000010: 17d7 dab4 282a 020f ced8 ef1f 22cd ce07
00000020: 2d33 d0e9 0437 cc43 f52e af2a 1b2b 1bf5
00000030: 3003 2dd6 f1e6 c9e8 e22f 171b 1e27 2905
00000040: 15f6 1de3 35db dbf6 efe0 fa21 f5e5 0444
00000050: 340a e0ff cecf f839 2add 35bc 24ce fef9
00000060: 23e7 f2cf 17fc f819 021f 002a 1afc 1acf
00000070: d01d e9f3 e447 eae5 c9e2 dcd8 d0ea 011d
00000080: 1ed0 f113 0507 e00d 281d cbe1 e1e2 f5dc
00000090: 0625 e10f fff0 e215 1518 e1e9 dce1 edfc
000000a0: d8e5 d008 dd15 e8f0 18d7 fb09 051d 2a17
000000b0: e9da ced5 f304 000e cecf e5f3 231b e82a
000000c0: 10ec 2afe 1dea e1dc d9cf 0e18 1d34 ccf2
000000d0: 04f3 12cb da01 dd0c 2ff6 1ad1 d102 2404
000000e0: 20da 2bdb cae6 d011 32e8 d10f f62d 15d4
000000f0: 03e6 1e11 cdde e4ec 17dc 24e2 1e1a 0ddc
-0.085149586 0.09145696 0.031536885 -0.15768442 0.100918025 0.11037909 -0.1608381 -0.022075817
-0.1356086 -0.028383195 0.11353278 -0.012614753 -0.06307377 -0.20814343 -0.0536127 -0.1608381
0.07253483 -0.12930122 -0.11984015 -0.2396803 0.12614754 0.1324549 0.0063073765 0.047305323
-0.15768442 -0.12614754 -0.0536127 0.097764336 0.1072254 -0.1608381 -0.15768442 0.022075817
0.14191598 0.1608381 -0.15137704 -0.07253483 0.012614753 0.17345285 -0.1639918 0.21129711
-0.03469057 0.14506966 -0.25544876 0.1324549 0.085149586 0.1356086 0.085149586 -0.03469057
0.15137704 0.009461065 0.14191598 -0.1324549 -0.047305323 -0.0819959 -0.17345285 -0.07568852
-0.09461065 0.14822336 0.07253483 0.085149586 0.09461065 0.12299384 0.12930122 0.015768442
0.06622745 -0.031536885 0.09145696 -0.09145696 0.16714548 -0.11668646 -0.11668646 -0.031536885
-0.0536127 -0.100918025 -0.01892213 0.104071714 -0.03469057 -0.085149586 0.012614753 0.2144508
0.1639918 0.031536885 -0.100918025 -0.0031536883 -0.15768442 -0.15453072 -0.025229506 0.17976023
0.1324549 -0.11037909 0.16714548 -0.2144508 0.11353278 -0.15768442 -0.0063073765 -0.022075817
0.11037909 -0.07884221 -0.044151634 -0.15453072 0.07253483 -0.012614753 -0.025229506 0.07884221
0.0063073765 0.097764336 0.0 0.1324549 0.0819959 -0.012614753 0.0819959 -0.15453072
-0.15137704 0.09145696 -0.07253483 -0.04099795 -0.08830327 0.22391187 -0.06938114 -0.085149586
-0.17345285 -0.09461065 -0.11353278 -0.12614754 -0.15137704 -0.06938114 0.0031536883 0.09145696
0.09461065 -0.15137704 -0.047305323 0.059920076 0.015768442 0.022075817 -0.100918025 0.04099795
0.12614754 0.09145696 -0.16714548 -0.097764336 -0.097764336 -0.09461065 -0.03469057 -0.11353278
0.01892213 0.11668646 -0.097764336 0.047305323 -0.0031536883 -0.050459012 -0.09461065 0.06622745
0.06622745 0.07568852 -0.097764336 -0.07253483 -0.11353278 -0.097764336 -0.059920076 -0.012614753
-0.12614754 -0.085149586 -0.15137704 0.025229506 -0.11037909 0.06622745 -0.07568852 -0.050459012
0.07568852 -0.12930122 -0.015768442 0.028383195 0.015768442 0.09145696 0.1324549 0.07253483
-0.07253483 -0.11984015 -0.15768442 -0.1356086 -0.04099795 0.012614753 0.0 0.044151634
-0.15768442 -0.15453072 -0.085149586 -0.04099795 0.11037909 0.085149586 -0.07568852 0.1324549
0.050459012 -0.06307377 0.1324549 -0.0063073765 0.09145696 -0.06938114 -0.097764336 -0.11353278
-0.12299384 -0.15453072 0.044151634 0.07568852 0.09145696 0.1639918 -0.1639918 -0.044151634
0.012614753 -0.04099795 0.05676639 -0.16714548 -0.11984015 0.0031536883 -0.11037909 0.03784426
0.14822336 -0.031536885 0.0819959 -0.14822336 -0.14822336 0.0063073765 0.11353278 0.012614753
0.100918025 -0.11984015 0.1356086 -0.11668646 -0.17029917 -0.0819959 -0.15137704 0.0536127
0.15768442 -0.07568852 -0.14822336 0.047305323 -0.031536885 0.14191598 0.06622745 -0.13876228
0.009461065 -0.0819959 0.09461065 0.0536127 -0.1608381 -0.1072254 -0.08830327 -0.06307377
0.07253483 -0.11353278 0.11353278 -0.09461065 0.09461065 0.0819959 0.04099795 -0.11353278

functional_5/functional_1/dense_1/MatMul i1 [1, 64] scale=0.0026263634 zero_point=0
00000000: ac00 ea48 bde1 c6b4 3e5a 9b45 72cc a295
00000010: 27a9 3133 d3dd 09cb 6823 eebf caca be32
00000020: f13b b535 e201 7b4e 7ffe 3d1e 0e0c 5862
00000030: fdee e45a 69e8 9faa bfe1 8d04 56d6 31b8
-0.22061452 0.0 -0.057779994 0.18909816 -0.17596635 -0.08141726 -0.15232907 -0.19960362
0.16283453 0.23637271 -0.2652627 0.18121907 0.29940543 -0.1365709 -0.24687816 -0.28102088
0.102428176 -0.22849362 0.1286918 0.13394454 -0.118186355 -0.09192272 0.02363727 -0.13919726
0.2731418 0.09192272 -0.04727454 -0.17071362 -0.14182362 -0.14182362 -0.17334 0.13131817
-0.03939545 0.15495545 -0.19697726 0.13919726 -0.0787909 0.0026263634 0.3230427 0.20485635
0.33354816 -0.005252727 0.16020817 0.0787909 0.03676909 0.031516362 0.23111998 0.2573836
-0.0078790905 -0.04727454 -0.07353818 0.23637271 0.27576816 -0.063032724 -0.25475726 -0.22586726
-0.17071362 -0.08141726 -0.3020318 0.010505454 0.22586726 -0.11030726 0.1286918 -0.18909816

functional_5/functional_1/stem_conv/Conv2D i1 [32, 3, 3, 3]
00000000: d709 eee2 15fc 19c0 f47f 5308 3226 fcb5
00000010: 23f5 4b59 1bf1 291e 2deb db43 5615 637f
00000020: 2b10 3e2b bdbe e886 89bc ed89 bc07 f0fd
00000030: 0aff 14fc 2c17 cdae eb19 660e 13ea 0ecc
00000040: 81dd 6042 11d5 4211 f2f1 f906 311a 12df
00000050: ee0c cffc 487f 1514 041b e13c f8fb eef7
00000060: d3f1 001f 0bf5 d4a9 ed0c f4f4 01b0 4a25
00000070: 955e fe9a 5c0a 9f61 3283 761d 8174 10a8
00000080: 3812 a252 01f8 0fcc dbe2 f1c7 01e3 3500
00000090: f481 cfd4 acfa 61af f9d1 ed0f e8cc f5c2
000000a0: 1117 5ee0 a775 e686 5e06 8a6f f38d 73ef
000000b0: 816d f284 34da cb44 f1bc efe9 1f13 ccfc
000000c0: 22f1 f62e bdf8 1d45 2854 5426 815a 2ae5
000000d0: e5c2 e5c3 c337 03be 1cea 05f0 c004 034b
000000e0: 04ef 7f2e a5d4 ed68 d4ed 3307 e0fb edf5
000000f0: de0b 1df6 e8f9 292e 08e4 8108 de05 fc52
-41 9 -18 -30 21 -4 25 -64
-12 127 83 8 50 38 -4 -75
35 -11 75 89 27 -15 41 30
45 -21 -37 67 86 21 99 127
43 16 62 43 -67 -66 -24 -122
-119 -68 -19 -119 -68 7 -16 -3
10 -1 20 -4 44 23 -51 -82
-21 25 102 14 19 -22 14 -52
-127 -35 96 66 17 -43 66 17
-14 -15 -7 6 49 26 18 -33
-18 12 -49 -4 72 127 21 20
4 27 -31 60 -8 -5 -18 -9
-45 -15 0 31 11 -11 -44 -87
-19 12 -12 -12 1 -80 74 37
-107 94 -2 -102 92 10 -97 97
50 -125 118 29 -127 116 16 -88
56 18 -94 82 1 -8 15 -52
-37 -30 -15 -57 1 -29 53 0
-12 -127 -49 -44 -84 -6 97 -81
-7 -47 -19 15 -24 -52 -11 -62
17 23 94 -32 -89 117 -26 -122
94 6 -118 111 -13 -115 115 -17
-127 109 -14 -124 52 -38 -53 68
-15 -68 -17 -23 31 19 -52 -4
34 -15 -10 46 -67 -8 29 69
40 84 84 38 -127 90 42 -27
-27 -62 -27 -61 -61 55 3 -66
28 -22 5 -16 -64 4 3 75
4 -17 127 46 -91 -44 -19 104
-44 -19 51 7 -32 -5 -19 -11
-34 11 29 -10 -24 -7 41 46
8 -28 -127 8 -34 5 -4 82

functional_5/functional_1/block1a_se_reduce/Conv2D i1 [8, 1, 1, 32]
00000000: e100 0ddc dfe4 99da cbbf fcd7 27dc 9f01
00000010: afec 00f7 e7d5 01e1 07ff b74a 8189 fe1a
00000020: b3f3 dcdb ecdb aafd f5ef 1b61 e0d3 a2df
00000030: c9dd ed88 d7f3 b2d5 e2e0 f7b7 cef4 81e0
00000040: c4c9 03ba 8bd0 bda3 aeaa daf0 e0c0 a7e4
00000050: d7c7 d1b9 81a7 acbf efd7 a2f6 b5a7 eefa
00000060: ce06 1201 d8de a827 03ef 576a d4bc 81fb
00000070: f6e9 f3df bddb 84d4 e9f2 119b b5dc d511
00000080: 04ec ef07 e8f2 e214 fef0 e3f2 e906 2bf7
00000090: f8e0 e807 e11a 09cb fee7 0fa3 81ee 0df5
000000a0: f1ea f407 ecf3 e01c 02f8 e602 df08 2bf4
000000b0: 03eb efed df16 02cd 06ed 029f 81e8 ecf1
000000c0: dbd6 45e3 dcd4 5b40 f2c5 a017 bcd0 8136
000000d0: 7400 d6fe f22d d3cb 51fa cde7 41c9 2b2f
000000e0: f1e9 10e8 dded a4ce e3e6 e155 e7ee e503
000000f0: b4d9 ecf9 b7f1 e2cf 15e6 dfd4 81f8 0a04
-31 0 13 -36 -33 -28 -103 -38
-53 -65 -4 -41 39 -36 -97 1
-81 -20 0 -9 -25 -43 1 -31
7 -1 -73 74 -127 -119 -2 26
-77 -13 -36 -37 -20 -37 -86 -3
-11 -17 27 97 -32 -45 -94 -33
-55 -35 -19 -120 -41 -13 -78 -43
-30 -32 -9 -73 -50 -12 -127 -32
-60 -55 3 -70 -117 -48 -67 -93
-82 -86 -38 -16 -32 -64 -89 -28
-41 -57 -47 -71 -127 -89 -84 -65
-17 -41 -94 -10 -75 -89 -18 -6
-50 6 18 1 -40 -34 -88 39
3 -17 87 106 -44 -68 -127 -5
-10 -23 -13 -33 -67 -37 -124 -44
-23 -14 17 -101 -75 -36 -43 17
4 -20 -17 7 -24 -14 -30 20
-2 -16 -29 -14 -23 6 43 -9
-8 -32 -24 7 -31 26 9 -53
-2 -25 15 -93 -127 -18 13 -11
-15 -22 -12 7 -20 -13 -32 28
2 -8 -26 2 -33 8 43 -12
3 -21 -17 -19 -33 22 2 -51
6 -19 2 -97 -127 -24 -20 -15
-37 -42 69 -29 -36 -44 91 64
-14 -59 -96 23 -68 -48 -127 54
116 0 -42 -2 -14 45 -45 -53
81 -6 -51 -25 65 -55 43 47
-15 -23 16 -24 -35 -19 -92 -50
-29 -26 -31 85 -25 -18 -27 3
-76 -39 -20 -7 -73 -15 -30 -49
21 -26 -33 -44 -127 -8 10 4

functional_5/functional_1/block1a_se_expand/Conv2D i1 [32, 1, 1, 8]
00000000: d681 08a9 f8c0 621b 0e81 0bc2 e4c7 3dc2
00000010: f4bc 09eb f3f7 7f15 11ae 20bb 5632 3b7f
00000020: f9be cb81 04f9 83c5 1e81 13ce eec1 50ea
00000030: ccc5 eb9a 818a 9bae 022b 1170 6b7f 4dd8
00000040: f5d3 2f74 81b3 77a4 2f1d 3413 b506 637f
00000050: 3a81 fb9e 4a0e d9df 157f 1652 1429 a56f
00000060: fa0a 1435 322f 7f0e cea5 ddaa 9e81 a4a5
00000070: f5b3 d589 3823 81f4 fee2 0afe eaf6 7f2b
00000080: f420 fafa fef8 8105 c27f 0148 94a9 8f07
00000090: 8130 340c 9aa0 3e1a 3381 e7c8 3605 09f5
000000a0: a7fb cf00 a49f ea81 dfde 03df deda 7f1a
000000b0: dd87 ed81 c693 83cd 1981 d884 909b 249e
000000c0: 00b1 0bf5 ecf9 7f18 fa81 e4a2 d9d8 37b7
000000d0: f4ec ebea 8981 f9b1 2ed9 f1a4 0cf5 81cd
000000e0: 07e0 f7e5 818b 53c8 fd33 f0ee dad7 811d
000000f0: a2ea e890 a993 81d6 df81 fca5 b4a5 3702
-42 -127 8 -87 -8 -64 98 27
14 -127 11 -62 -28 -57 61 -62
-12 -68 9 -21 -13 -9 127 21
17 -82 32 -69 86 50 59 127
-7 -66 -53 -127 4 -7 -125 -59
30 -127 19 -50 -18 -63 80 -22
-52 -59 -21 -102 -127 -118 -101 -82
2 43 17 112 107 127 77 -40
-11 -45 47 116 -127 -77 119 -92
47 29 52 19 -75 6 99 127
58 -127 -5 -98 74 14 -39 -33
21 127 22 82 20 41 -91 111
-6 10 20 53 50 47 127 14
-50 -91 -35 -86 -98 -127 -92 -91
-11 -77 -43 -119 56 35 -127 -12
-2 -30 10 -2 -22 -10 127 43
-12 32 -6 -6 -2 -8 -127 5
-62 127 1 72 -108 -87 -113 7
-127 48 52 12 -102 -96 62 26
51 -127 -25 -56 54 5 9 -11
-89 -5 -49 0 -92 -97 -22 -127
-33 -34 3 -33 -34 -38 127 26
-35 -121 -19 -127 -58 -109 -125 -51
25 -127 -40 -124 -112 -101 36 -98
0 -79 11 -11 -20 -7 127 24
-6 -127 -28 -94 -39 -40 55 -73
-12 -20 -21 -22 -119 -127 -7 -79
46 -39 -15 -92 12 -11 -127 -51
7 -32 -9 -27 -127 -117 83 -56
-3 51 -16 -18 -38 -41 -127 29
-94 -22 -24 -112 -87 -109 -127 -42
-33 -127 -4 -91 -76 -91 55 2

functional_5/functional_1/block1a_project_conv/Conv2D i1 [16, 1, 1, 32]
00000000: 1761 f122 fee1 fa0c fb03 cefd 1920 0a1a
00000010: 0821 f4e3 017f cf0e d500 fff2 00e7 0bff
00000020: 0100 00fd f504 2602 fefe fc0e 0d00 fdfa
00000030: fc03 0203 e402 0501 03fe a8de 8108 fe05
00000040: 3307 f9fe 057f 0226 150b 03f7 0111 e7fb
00000050: 1e02 1fbb 0ff9 21ff 00fd 06ed fba2 3df6
00000060: 1c31 ce86 fff5 0505 8113 150b f400 03c9
00000070: fffa fac6 fbff 01f2 351a 0910 01be 1d5d
00000080: b8fb fb0b 01bf 0e2e 3e0b e7f7 014e dbeb
00000090: 2b1e e962 110a 7101 0701 06e9 fb81 b91c
000000a0: 22b7 02f8 fc00 f5d1 caf7 ad08 fe51 22ed
000000b0: d81e 03d4 e335 71ff 0fff ff19 077f 25e2
000000c0: fc25 c521 0b24 3608 35fa 0608 81ef 09b2
000000d0: e418 f627 fe0a 176d 37df f507 041f e336
000000e0: 13fb b117 fa31 fd24 0bf1 0200 0839 0211
000000f0: f2fa fd18 f9ed f200 e57f 0109 fb12 e844
23 97 -15 34 -2 -31 -6 12
-5 3 -50 -3 25 32 10 26
8 33 -12 -29 1 127 -49 14
-43 0 -1 -14 0 -25 11 -1
1 0 0 -3 -11 4 38 2
-2 -2 -4 14 13 0 -3 -6
-4 3 2 3 -28 2 5 1
3 -2 -88 -34 -127 8 -2 5
51 7 -7 -2 5 127 2 38
21 11 3 -9 1 17 -25 -5
30 2 31 -69 15 -7 33 -1
0 -3 6 -19 -5 -94 61 -10
28 49 -50 -122 -1 -11 5 5
-127 19 21 11 -12 0 3 -55
-1 -6 -6 -58 -5 -1 1 -14
53 26 9 16 1 -66 29 93
-72 -5 -5 11 1 -65 14 46
62 11 -25 -9 1 78 -37 -21
43 30 -23 98 17 10 113 1
7 1 6 -23 -5 -127 -71 28
34 -73 2 -8 -4 0 -11 -47
-54 -9 -83 8 -2 81 34 -19
-40 30 3 -44 -29 53 113 -1
15 -1 -1 25 7 127 37 -30
-4 37 -59 33 11 36 54 8
53 -6 6 8 -127 -17 9 -78
-28 24 -10 39 -2 10 23 109
55 -33 -11 7 4 31 -29 54
19 -5 -79 23 -6 49 -3 36
11 -15 2 0 8 57 2 17
-14 -6 -3 24 -7 -19 -14 0
-27 127 1 9 -5 18 -24 68

functional_5/functional_1/block2a_expand_conv/Conv2D i1 [96, 1, 1, 16]
00000000: 0110 15fd 10eb fbfc 1202 0504 fa81 0306
00000010: 81fd 041c f5f3 0e19 f800 f3ea acfc e146
00000020: 020a 1ef1 81af d6f9 1a00 05fc 0b05 eaff
00000030: 25f1 96f9 4231 c9d5 31bc 7f72 c706 b744
00000040: fe01 2102 5d7f 0507 0007 08f6 0706 f803
00000050: 03ef 8125 65d6 fbd9 f2f2 0b58 0b07 eb27
00000060: e310 9fe5 fa81 132f c9fc 01f8 26f8 210e
00000070: 0ff6 7a24 f57f e4ac 0dfa f947 e803 ee1d
00000080: c623 a1fc aa24 38d8 fb2d 4581 3fea 60ec
00000090: 1cfd d96c 0000 e881 259b 9be5 f503 e666
000000a0: 1a09 11f1 e7cf e61a 2207 18d3 dd02 7f22
000000b0: a8f5 094b 1e14 adfd 3b22 d5e0 7f04 21b4
000000c0: e800 7fed ab21 dcd6 0628 e1e0 2206 0b0b
000000d0: 087f e9f8 f906 04ff 1304 fdec f27c f7e8
000000e0: e4f7 81fd 57db 2e2c b7f8 e002 05e8 2de1
000000f0: c54b 1e70 3378 58df 81f6 edc3 e2ec 9476
1 16 21 -3 16 -21 -5 -4
18 2 5 4 -6 -127 3 6
-127 -3 4 28 -11 -13 14 25
-8 0 -13 -22 -84 -4 -31 70
2 10 30 -15 -127 -81 -42 -7
26 0 5 -4 11 5 -22 -1
37 -15 -106 -7 66 49 -55 -43
49 -68 127 114 -57 6 -73 68
-2 1 33 2 93 127 5 7
0 7 8 -10 7 6 -8 3
3 -17 -127 37 101 -42 -5 -39
-14 -14 11 88 11 7 -21 39
-29 16 -97 -27 -6 -127 19 47
-55 -4 1 -8 38 -8 33 14
15 -10 122 36 -11 127 -28 -84
13 -6 -7 71 -24 3 -18 29
-58 35 -95 -4 -86 36 56 -40
-5 45 69 -127 63 -22 96 -20
28 -3 -39 108 0 0 -24 -127
37 -101 -101 -27 -11 3 -26 102
26 9 17 -15 -25 -49 -26 26
34 7 24 -45 -35 2 127 34
-88 -11 9 75 30 20 -83 -3
59 34 -43 -32 127 4 33 -76
-24 0 127 -19 -85 33 -36 -42
6 40 -31 -32 34 6 11 11
8 127 -23 -8 -7 6 4 -1
19 4 -3 -20 -14 124 -9 -24
-28 -9 -127 -3 87 -37 46 44
-73 -8 -32 2 5 -24 45 -31
-59 75 30 112 51 120 88 -33
-127 -10 -19 -61 -30 -20 -108 118

functional_5/functional_1/block2a_se_reduce/Conv2D i1 [4, 1, 1, 96]
00000000: dc0e f50a f813 eef6 fee0 f9f6 1035 0216
00000010: 0ff3 d802 f10b 010a bb0c 0e33 00f9 02c0
00000020: 1ae8 07fe f6f8 0504 0cd7 f846 c4f9 e602
00000030: 1106 02fa f801 f600 04fe f5f6 f204 fc10
00000040: e97f 06ff f60e 14f5 04fe 0601 05f4 0614
00000050: 1b12 f913 6101 e000 2104 e0fa 1002 0cf7
00000060: 070f 05f2 2747 c5cb 3594 fbca 0606 0615
00000070: c644 a702 a111 4a08 02e0 22ef e617 fde5
00000080: 48e1 4642 35bb fecc f02e af59 dae3 fdfb
00000090: 11e8 4a0b 02e3 3c47 00f0 d4f5 0bba 2042
000000a0: 811e 20e4 f50d 17d6 19a9 11c7 f700 081d
000000b0: d6e6 d9ea 34e3 e3e1 c02a fb08 3d00 0fe8
000000c0: 3406 f3fb fb04 01f6 f3df f1fc 05fb fd13
000000d0: 1c08 7ff3 fb19 1206 42f6 09fa fdef ef1a
000000e0: ffef fce6 e602 f7db 0c27 fbf2 51f2 f00b
000000f0: 03ec 00f9 ec27 0504 feee fff6 fa02 0213
-36 14 -11 10 -8 19 -18 -10
-2 -32 -7 -10 16 53 2 22
15 -13 -40 2 -15 11 1 10
-69 12 14 51 0 -7 2 -64
26 -24 7 -2 -10 -8 5 4
12 -41 -8 70 -60 -7 -26 2
17 6 2 -6 -8 1 -10 0
4 -2 -11 -10 -14 4 -4 16
-23 127 6 -1 -10 14 20 -11
4 -2 6 1 5 -12 6 20
27 18 -7 19 97 1 -32 0
33 4 -32 -6 16 2 12 -9
7 15 5 -14 39 71 -59 -53
53 -108 -5 -54 6 6 6 21
-58 68 -89 2 -95 17 74 8
2 -32 34 -17 -26 23 -3 -27
72 -31 70 66 53 -69 -2 -52
-16 46 -81 89 -38 -29 -3 -5
17 -24 74 11 2 -29 60 71
0 -16 -44 -11 11 -70 32 66
-127 30 32 -28 -11 13 23 -42
25 -87 17 -57 -9 0 8 29
-42 -26 -39 -22 52 -29 -29 -31
-64 42 -5 8 61 0 15 -24
52 6 -13 -5 -5 4 1 -10
-13 -33 -15 -4 5 -5 -3 19
28 8 127 -13 -5 25 18 6
66 -10 9 -6 -3 -17 -17 26
-1 -17 -4 -26 -26 2 -9 -37
12 39 -5 -14 81 -14 -16 11
3 -20 0 -7 -20 39 5 4
-2 -18 -1 -10 -6 2 2 19

functional_5/functional_1/block2a_se_expand/Conv2D i1 [96, 1, 1, 4]
00000000: 7f1c 2c73 2f7f 1814 6c7f 0a69 1e7f 513b
00000010: 26de 327f 167f 3c51 6f34 7f4d 517f 605e
00000020: 647f 3b53 7778 7f4c 5d3f 7f7d 127f 1e2e
00000030: 3712 5f7f ad00 ed7f 502a 7f59 391f 7f51
00000040: 3942 597f 1d7f 2624 f5e5 d97f 3efa 7f7d
00000050: 5e53 687f 3160 7f4e 157f 280b 7f1c 7e5a
00000060: 4b0f 815a 2170 7f49 f467 7e7f 6581 2c45
00000070: 3b7f 2c5b 5e36 7f58 2c7f 3f50 4723 4c7f
00000080: 53f4 7f58 7f70 264e 2068 4e7f 2520 777f
00000090: 4f7f 484e 7f7b 6148 3c0d 4f7f 6881 5064
000000a0: 3272 7f36 4481 5a63 371a 217f 2e17 4f7f
000000b0: 187f 4428 7f3d 4c74 6651 7f77 7f43 5838
000000c0: 253e 497f 2012 287f 2d17 557f 147f 0c11
000000d0: 6066 267f e577 2b7f c5ca fa7f 7f60 6230
000000e0: 3c7f 5654 3303 607f 227f 292f 337f fa3e
000000f0: 4440 567f 0f7f 2d41 187f 260f 227f 224e
127 28 44 115 47 127 24 20
108 127 10 105 30 127 81 59
38 -34 50 127 22 127 60 81
111 52 127 77 81 127 96 94
100 127 59 83 119 120 127 76
93 63 127 125 18 127 30 46
55 18 95 127 -83 0 -19 127
80 42 127 89 57 31 127 81
57 66 89 127 29 127 38 36
-11 -27 -39 127 62 -6 127 125
94 83 104 127 49 96 127 78
21 127 40 11 127 28 126 90
75 15 -127 90 33 112 127 73
-12 103 126 127 101 -127 44 69
59 127 44 91 94 54 127 88
44 127 63 80 71 35 76 127
83 -12 127 88 127 112 38 78
32 104 78 127 37 32 119 127
79 127 72 78 127 123 97 72
60 13 79 127 104 -127 80 100
50 114 127 54 68 -127 90 99
55 26 33 127 46 23 79 127
24 127 68 40 127 61 76 116
102 81 127 119 127 67 88 56
37 62 73 127 32 18 40 127
45 23 85 127 20 127 12 17
96 102 38 127 -27 119 43 127
-59 -54 -6 127 127 96 98 48
60 127 86 84 51 3 96 127
34 127 41 47 51 127 -6 62
68 64 86 127 15 127 45 65
24 127 38 15 34 127 34 78

functional_5/functional_1/block2a_project_conv/Conv2D i1 [24, 1, 1, 96]
00000000: c6c3 56cd f224 0d23 45d2 283a cbe8 7316
00000010: f712 11c3 f613 ec2b f438 12dc 1165 2d1d
00000020: 2086 e34b 75a9 13c2 37db 0c06 be2a de37
00000030: 26da c1dc a708 faa4 ff2e 4649 d618 e4fb
00000040: 13bf f723 29fe cac1 2c07 4c24 8117 9703
00000050: e530 0b2a 01cc af23 f9f8 dd5f a0ad 0c3e
00000060: fbc8 faea d30b 1213 1117 1d1d e601 910e
00000070: 0f2d 0f03 202a 071f fa3b 740d fe81 2af6
00000080: eede c44c a7eb 1d16 e507 02fb fff7 120e
00000090: 0805 ddcb 0004 0de5 0e18 1407 0500 08e3
000000a0: 2405 cb0c 27fa cdf5 e4f0 d50f e495 eadb
000000b0: e0ec 0008 f1ca f915 0503 fcb3 f500 12b9
000000c0: ef4a 12e8 eef8 0717 ef10 f8de e9ea eeeb
000000d0: 0c03 0a1c 1b2d 1bee 03c9 5204 fbeb ea0d
000000e0: 1124 f67f f6fa ea1f c80a f8fe 0024 0e23
000000f0: 2be4 1d0b 0f16 fc07 16f3 0d13 17f4 1ad8
-58 -61 86 -51 -14 36 13 35
69 -46 40 58 -53 -24 115 22
-9 18 17 -61 -10 19 -20 43
-12 56 18 -36 17 101 45 29
32 -122 -29 75 117 -87 19 -62
55 -37 12 6 -66 42 -34 55
38 -38 -63 -36 -89 8 -6 -92
-1 46 70 73 -42 24 -28 -5
19 -65 -9 35 41 -2 -54 -63
44 7 76 36 -127 23 -105 3
-27 48 11 42 1 -52 -81 35
-7 -8 -35 95 -96 -83 12 62
-5 -56 -6 -22 -45 11 18 19
17 23 29 29 -26 1 -111 14
15 45 15 3 32 42 7 31
-6 59 116 13 -2 -127 42 -10
-18 -34 -60 76 -89 -21 29 22
-27 7 2 -5 -1 -9 18 14
8 5 -35 -53 0 4 13 -27
14 24 20 7 5 0 8 -29
36 5 -53 12 39 -6 -51 -11
-28 -16 -43 15 -28 -107 -22 -37
-32 -20 0 8 -15 -54 -7 21
5 3 -4 -77 -11 0 18 -71
-17 74 18 -24 -18 -8 7 23
-17 16 -8 -34 -23 -22 -18 -21
12 3 10 28 27 45 27 -18
3 -55 82 4 -5 -21 -22 13
17 36 -10 127 -10 -6 -22 31
-56 10 -8 -2 0 36 14 35
43 -28 29 11 15 22 -4 7
22 -13 13 19 23 -12 26 -40

functional_5/functional_1/block2b_expand_conv/Conv2D i1 [144, 1, 1, 24]
00000000: bfec b9ef 49de db12 b2f6 12e5 35dc ef0e
00000010: 99e6 7f15 0e06 c8fc 0e60 a175 3ca6 7fe3
00000020: e2fd 58cb 471a 4e1a 3c3e cd21 381e f61f
00000030: 1109 ff0c f717 d5fa 0009 027f edeb 0810
00000040: 0900 0304 f302 fcfb c61d c510 bada 5de3
00000050: 810d 11a6 4f0b 17f1 48fa 5020 1422 e3e9
00000060: deaf db06 43f8 f742 f97f ffd9 f2f0 10d0
00000070: 43f6 f4f0 2917 f0c9 0525 fac6 d3c7 49d1
00000080: eede 157f 0241 e1f8 190c 2607 01e6 1213
00000090: 28f5 f73d fe0f 0b23 e27f 0711 0c27 e4eb
000000a0: 171b fd3c 2811 0d1a d301 d5d3 1b21 baf2
000000b0: fdea 20ee 09dd 1099 9ddd 7fce 0f02 fe42
000000c0: 3c28 441d f621 9c01 a300 14ad 2dc1 ed0d
000000d0: 11e2 317f 4b11 2313 f3c2 fb01 f2fe e202
000000e0: 07f8 eaff 1081 f3f7 e501 e105 dffb dcbe
000000f0: 11fa 0645 30df d906 0908 de34 bc19 0e81
-65 -20 -71 -17 73 -34 -37 18
-78 -10 18 -27 53 -36 -17 14
-103 -26 127 21 14 6 -56 -4
14 96 -95 117 60 -90 127 -29
-30 -3 88 -53 71 26 78 26
60 62 -51 33 56 30 -10 31
17 9 -1 12 -9 23 -43 -6
0 9 2 127 -19 -21 8 16
9 0 3 4 -13 2 -4 -5
-58 29 -59 16 -70 -38 93 -29
-127 13 17 -90 79 11 23 -15
72 -6 80 32 20 34 -29 -23
-34 -81 -37 6 67 -8 -9 66
-7 127 -1 -39 -14 -16 16 -48
67 -10 -12 -16 41 23 -16 -55
5 37 -6 -58 -45 -57 73 -47
-18 -34 21 127 2 65 -31 -8
25 12 38 7 1 -26 18 19
40 -11 -9 61 -2 15 11 35
-30 127 7 17 12 39 -28 -21
23 27 -3 60 40 17 13 26
-45 1 -43 -45 27 33 -70 -14
-3 -22 32 -18 9 -35 16 -103
-99 -35 127 -50 15 2 -2 66
60 40 68 29 -10 33 -100 1
-93 0 20 -83 45 -63 -19 13
17 -30 49 127 75 17 35 19
-13 -62 -5 1 -14 -2 -30 2
7 -8 -22 -1 16 -127 -13 -9
-27 1 -31 5 -33 -5 -36 -66
17 -6 6 69 48 -33 -39 6
9 8 -34 52 -68 25 14 -127

functional_5/functional_1/block2b_se_reduce/Conv2D i1 [6, 1, 1, 144]
00000000: e7f0 0708 f028 46ee f0f8 0004 0b05 e401
00000010: edd5 edec 171c e7f1 0704 e7f1 f416 f915
00000020: f311 e1fc 1508 07ec f101 bc11 f1fb d401
00000030: 3f16 0710 cffb f207 fef7 eef3 0902 fd0e
00000040: 361a 0bee 0e00 e92a e8ee 15f7 0330 fcfc
00000050: 0b1f d7bc 03ff dc09 e8e2 30f6 eef6 ecd2
00000060: ecfb f8fe fdfe f0f8 faee 120d 1c25 f5e8
00000070: 05f6 e21c ff00 0b0f 0005 fb7f ecf9 18fd
00000080: 0215 fb26 12f0 0c17 ec15 03e5 f704 0303
00000090: f307 0806 0e1e 0ffc f507 fb06 0912 1ef7
000000a0: f1ef f6f4 1313 f626 05f9 effe f4ee fc14
000000b0: fcb7 f4fc 1911 0dfd faf8 0c07 fafc 50f8
000000c0: fb0e 2a07 fc08 07fa 040b fc14 fdfe fd0a
000000d0: 8112 12f7 02f7 f5f8 000d 05fa 0304 1d02
000000e0: 0402 ef03 fc03 eeff f1f5 1802 f80d f4f2
000000f0: fc0f fd0d 0000 fefb eff5 150f 0316 00f1
-25 -16 7 8 -16 40 70 -18
-16 -8 0 4 11 5 -28 1
-19 -43 -19 -20 23 28 -25 -15
7 4 -25 -15 -12 22 -7 21
-13 17 -31 -4 21 8 7 -20
-15 1 -68 17 -15 -5 -44 1
63 22 7 16 -49 -5 -14 7
-2 -9 -18 -13 9 2 -3 14
54 26 11 -18 14 0 -23 42
-24 -18 21 -9 3 48 -4 -4
11 31 -41 -68 3 -1 -36 9
-24 -30 48 -10 -18 -10 -20 -46
-20 -5 -8 -2 -3 -2 -16 -8
-6 -18 18 13 28 37 -11 -24
5 -10 -30 28 -1 0 11 15
0 5 -5 127 -20 -7 24 -3
2 21 -5 38 18 -16 12 23
-20 21 3 -27 -9 4 3 3
-13 7 8 6 14 30 15 -4
-11 7 -5 6 9 18 30 -9
-15 -17 -10 -12 19 19 -10 38
5 -7 -17 -2 -12 -18 -4 20
-4 -73 -12 -4 25 17 13 -3
-6 -8 12 7 -6 -4 80 -8
-5 14 42 7 -4 8 7 -6
4 11 -4 20 -3 -2 -3 10
-127 18 18 -9 2 -9 -11 -8
0 13 5 -6 3 4 29 2
4 2 -17 3 -4 3 -18 -1
-15 -11 24 2 -8 13 -12 -14
-4 15 -3 13 0 0 -2 -5
-17 -11 21 15 3 22 0 -15

functional_5/functional_1/block2b_se_expand/Conv2D i1 [144, 1, 1, 6]
00000000: 1d18 ab7f 173b 617f 76bf 2554 6e7f 7ac8
00000010: 6066 2e1e 6036 8127 7f08 f3fd 0cf7 0df7
00000020: 9f81 ab76 f2fe cb81 933c 4d69 7f1c 9ce8
00000030: f1f3 866f 7f3c 4556 7fb4 122f 0a16 7ff6
00000040: 0679 d2c6 81e8 231c 1412 1718 8116 5361
00000050: 677b 8175 c8fd d581 e0d8 512e f420 d27f
00000060: 08f4 4208 7f9f 1117 36fc 811b 2e2b 7fc8
00000070: aad0 2d2d 657f 9dfc f0aa 9801 977f cbdc
00000080: 81d0 051b 352c 5b43 8129 f847 e781 0c9d
00000090: 3c5d 7fef 7925 367f 4586 adec 402a 7a4e
000000a0: 8104 4639 a630 087f 602d 7ff3 dafa 7ff2
000000b0: 24d7 a411 d8d1 9f15 7f2d 3e22 9b04 357f
000000c0: 6719 a81c 567f 057f ff17 0826 f3e5 ca03
000000d0: 7f10 f8dd c63f 7fed 2015 0ad2 8155 1316
000000e0: 81df 2931 1212 02be 8149 2d41 27de 8143
000000f0: 3b32 52fc 8144 dfcc 8142 160d 7f04 da05
29 24 -85 127 23 59 97 127
118 -65 37 84 110 127 122 -56
96 102 46 30 96 54 -127 39
127 8 -13 -3 12 -9 13 -9
-97 -127 -85 118 -14 -2 -53 -127
-109 60 77 105 127 28 -100 -24
-15 -13 -122 111 127 60 69 86
127 -76 18 47 10 22 127 -10
6 121 -46 -58 -127 -24 35 28
20 18 23 24 -127 22 83 97
103 123 -127 117 -56 -3 -43 -127
-32 -40 81 46 -12 32 -46 127
8 -12 66 8 127 -97 17 23
54 -4 -127 27 46 43 127 -56
-86 -48 45 45 101 127 -99 -4
-16 -86 -104 1 -105 127 -53 -36
-127 -48 5 27 53 44 91 67
-127 41 -8 71 -25 -127 12 -99
60 93 127 -17 121 37 54 127
69 -122 -83 -20 64 42 122 78
-127 4 70 57 -90 48 8 127
96 45 127 -13 -38 -6 127 -14
36 -41 -92 17 -40 -47 -97 21
127 45 62 34 -101 4 53 127
103 25 -88 28 86 127 5 127
-1 23 8 38 -13 -27 -54 3
127 16 -8 -35 -58 63 127 -19
32 21 10 -46 -127 85 19 22
-127 -33 41 49 18 18 2 -66
-127 73 45 65 39 -34 -127 67
59 50 82 -4 -127 68 -33 -52
-127 66 22 13 127 4 -38 5

functional_5/functional_1/block2b_project_conv/Conv2D i1 [24, 1, 1, 144]
00000000: 08f0 ea06 f803 1eef 1412 fa19 e7f4 01fb
00000010: 060a 05e9 0601 1b00 1d09 10f4 15fb 07ff
00000020: 1f01 0703 f402 06ef f9e9 0814 0111 07fb
00000030: fdfe 0a1b fbf8 30f8 1a07 ff10 ea1a 051d
00000040: 0b14 0900 08f1 f006 0600 7ff1 09fd 0b05
00000050: 0afa 0a06 0203 0e03 0102 0309 10f6 11fc
00000060: 13fa 1a05 0c02 f006 00f1 f60e f805 f210
00000070: 0907 060a f410 f8e1 fcf6 39f9 1306 fb18
00000080: 0501 01d4 ff00 ff05 06d1 03f8 050d 3110
00000090: fb0c eaef f8fc fffc d140 fbd8 1129 d80f
000000a0: 140f e627 3203 fae3 0df2 f90e faf9 f8f9
000000b0: eafb ec02 2344 106e 0303 0f15 ee09 0149
000000c0: ffde 10ee fce2 cffb 39fd f6f8 f5de e4fd
000000d0: 07ed 810a 4a0d c004 0d4b 1f20 def3 f701
000000e0: f827 ecf9 0639 e602 f74a e0f4 f405 0123
000000f0: 132a 0bdf 14f0 07dc f70d df1c efef 00ee
8 -16 -22 6 -8 3 30 -17
20 18 -6 25 -25 -12 1 -5
6 10 5 -23 6 1 27 0
29 9 16 -12 21 -5 7 -1
31 1 7 3 -12 2 6 -17
-7 -23 8 20 1 17 7 -5
-3 -2 10 27 -5 -8 48 -8
26 7 -1 16 -22 26 5 29
11 20 9 0 8 -15 -16 6
6 0 127 -15 9 -3 11 5
10 -6 10 6 2 3 14 3
1 2 3 9 16 -10 17 -4
19 -6 26 5 12 2 -16 6
0 -15 -10 14 -8 5 -14 16
9 7 6 10 -12 16 -8 -31
-4 -10 57 -7 19 6 -5 24
5 1 1 -44 -1 0 -1 5
6 -47 3 -8 5 13 49 16
-5 12 -22 -17 -8 -4 -1 -4
-47 64 -5 -40 17 41 -40 15
20 15 -26 39 50 3 -6 -29
13 -14 -7 14 -6 -7 -8 -7
-22 -5 -20 2 35 68 16 110
3 3 15 21 -18 9 1 73
-1 -34 16 -18 -4 -30 -49 -5
57 -3 -10 -8 -11 -34 -28 -3
7 -19 -127 10 74 13 -64 4
13 75 31 32 -34 -13 -9 1
-8 39 -20 -7 6 57 -26 2
-9 74 -32 -12 -12 5 1 35
19 42 11 -33 20 -16 7 -36
-9 13 -33 28 -17 -17 0 -18

functional_5/functional_1/block3a_expand_conv/Conv2D i1 [144, 1, 1, 24]
00000000: 1801 b460 d040 1c0d da08 faf3 f7e5 81e7
00000010: eff4 123f df0d 1e41 1a02 f703 0bfe f499
00000020: db3e 0108 da0b a30b fc81 0cfb f72c fdfb
00000030: 0607 fb0e e7d5 3707 f905 11c3 207f f4fe
00000040: e302 0a29 12f9 192d b4d5 8cf6 5916 da02
00000050: e705 1bf0 04e7 16dd a0da 7f29 090b f9e9
00000060: 7fca 0d25 5ac9 05eb d228 f77b 1db4 952e
00000070: df16 11f1 1eff cf15 0efe 0b15 c3cd 2014
00000080: abfe d7e4 2cd3 aa1f 4ae5 7f20 dbfc e3b8
00000090: 0ce9 e0f0 f71a c2e7 f4fb f305 c181 3816
000000a0: 1804 d3cd c4f3 08c7 0bf8 0327 0be7 fb4a
000000b0: e97f ee06 ed04 eeea fb1c 0c0d f062 feeb
000000c0: 0a06 1e15 e2e3 eb7a f2c0 fd64 00fc d10a
000000d0: d881 ef15 ddd6 e9d0 01fe 32d0 ca1d 2881
000000e0: 142c 14e4 170f 0bdb 558d 86f0 32f5 fb0e
000000f0: 28da 0128 1715 e0f4 db07 fa04 ca81 fc2d
24 1 -76 96 -48 64 28 13
-38 8 -6 -13 -9 -27 -127 -25
-17 -12 18 63 -33 13 30 65
26 2 -9 3 11 -2 -12 -103
-37 62 1 8 -38 11 -93 11
-4 -127 12 -5 -9 44 -3 -5
6 7 -5 14 -25 -43 55 7
-7 5 17 -61 32 127 -12 -2
-29 2 10 41 18 -7 25 45
-76 -43 -116 -10 89 22 -38 2
-25 5 27 -16 4 -25 22 -35
-96 -38 127 41 9 11 -7 -23
127 -54 13 37 90 -55 5 -21
-46 40 -9 123 29 -76 -107 46
-33 22 17 -15 30 -1 -49 21
14 -2 11 21 -61 -51 32 20
-85 -2 -41 -28 44 -45 -86 31
74 -27 127 32 -37 -4 -29 -72
12 -23 -32 -16 -9 26 -62 -25
-12 -5 -13 5 -63 -127 56 22
24 4 -45 -51 -60 -13 8 -57
11 -8 3 39 11 -25 -5 74
-23 127 -18 6 -19 4 -18 -22
-5 28 12 13 -16 98 -2 -21
10 6 30 21 -30 -29 -21 122
-14 -64 -3 100 0 -4 -47 10
-40 -127 -17 21 -35 -42 -23 -48
1 -2 50 -48 -54 29 40 -127
20 44 20 -28 23 15 11 -37
85 -115 -122 -16 50 -11 -5 14
40 -38 1 40 23 21 -32 -12
-37 7 -6 4 -54 -127 -4 45

functional_5/functional_1/block1a_bn/FusedBatchNormV3;functional_5/functional_1/block1a_dwconv/depthwise;functional_5/functional_1/block1a_se_expand/Conv2D i1 [1, 3, 3, 32]
00000000: c301 f7f9 9524 5f09 ea1a f581 7f5f 6ff6
00000010: 06f6 7f01 c9fb 037f f2ed f9ce 0afa f601
00000020: b781 f5fa 94e7 0dd5 2eeb 81fb 2b7f 7fef
00000030: fd81 9ce9 0c81 eb2d fe15 e300 20f9 e6fc
00000040: 7f0d f30e 3ff4 8a13 01fc fe1e c60b bffa
00000050: 07c8 e314 b603 04a5 f6df 2104 cd04 1dfe
00000060: f7f6 0d7f 8171 3d2e ba81 010a 39b4 77ed
00000070: f003 46d1 ae07 db16 e6b4 e07f 31fd a002
00000080: bee4 7f89 b781 8981 8130 f606 e9a4 3f7f
00000090: 7f53 ccb6 81fc 990a 7f7f 81f3 7f7f d481
000000a0: 46f6 01fc 1d16 d923 ff0a 0112 c7e4 c8eb
000000b0: f229 f57f 2fff faec e7ee 1cdf eb06 7f01
000000c0: 0d03 f50a 450f 81f9 060a ff26 bef7 c8f5
000000d0: fffe fc06 a805 1eb5 eafc 3af1 c2f3 01fe
000000e0: fb0f e8f1 1cf5 da02 0601 fa0b d2c7 c5f6
000000f0: 012b 00f2 f904 7fd8 ff09 faf3 fd0d ea09
-61 1 -9 -7 -107 36 95 9
-22 26 -11 -127 127 95 111 -10
6 -10 127 1 -55 -5 3 127
-14 -19 -7 -50 10 -6 -10 1
-73 -127 -11 -6 -108 -25 13 -43
46 -21 -127 -5 43 127 127 -17
-3 -127 -100 -23 12 -127 -21 45
-2 21 -29 0 32 -7 -26 -4
127 13 -13 14 63 -12 -118 19
1 -4 -2 30 -58 11 -65 -6
7 -56 -29 20 -74 3 4 -91
-10 -33 33 4 -51 4 29 -2
-9 -10 13 127 -127 113 61 46
-70 -127 1 10 57 -76 119 -19
-16 3 70 -47 -82 7 -37 22
-26 -76 -32 127 49 -3 -96 2
-66 -28 127 -119 -73 -127 -119 -127
-127 48 -10 6 -23 -92 63 127
127 83 -52 -74 -127 -4 -103 10
127 127 -127 -13 127 127 -44 -127
70 -10 1 -4 29 22 -39 35
-1 10 1 18 -57 -28 -56 -21
-14 41 -11 127 47 -1 -6 -20
-25 -18 28 -33 -21 6 127 1
13 3 -11 10 69 15 -127 -7
6 10 -1 38 -66 -9 -56 -11
-1 -2 -4 6 -88 5 30 -75
-22 -4 58 -15 -62 -13 1 -2
-5 15 -24 -15 28 -11 -38 2
6 1 -6 11 -46 -57 -59 -10
1 43 0 -14 -7 4 127 -40
-1 9 -6 -13 -3 13 -22 9

functional_5/functional_1/block2a_bn/FusedBatchNormV3;functional_5/functional_1/block2a_dwconv/depthwise;functional_5/functional_1/block2a_se_expand/Conv2D i1 [1, 3, 3, 96]
00000000: f1fc 8132 dfae 4545 c056 b41a d11d 27dc
00000010: a54a 2d2a 4c42 1f12 e126 0942 c7d0 2290
00000020: 64f9 ad48 19e1 b24d da01 6a9e e35a 3a0b
00000030: cfc6 bb0d cd0b fc3e 5f30 8bfa 11de 0fa9
00000040: 3727 5f09 68f1 2f0a 5c0b f381 333f b7cc
00000050: 9b7e dcf7 a542 66fe ec36 1158 e7e9 dcb4
00000060: fdfe 05b0 b20b 8539 b06c 8161 9015 b1a7
00000070: a279 453a 58e6 4f33 2264 377f 8152 6997
00000080: 7ffd 925f b038 8169 4832 7faf d78c 6e1d
00000090: dac8 8115 22c4 818c 7f52 0dcd 517f 3381
000000a0: 6245 701f 7fe5 a722 05c4 4b6b a731 8b7f
000000b0: 7faa d4eb 8147 7f1e 1f00 dfcb c906 f100
000000c0: d7fc fd2c f849 12ae c22c cf57 ba0d 17e0
000000d0: d93b 5b19 2a1b 16fa 3349 3227 d8d8 33f7
000000e0: 210a d50c 37f0 d50a d309 4210 b7f0 2a81
000000f0: fb00 96f5 0aa2 9031 3022 3116 63c2 3fca
-15 -4 -127 50 -33 -82 69 69
-64 86 -76 26 -47 29 39 -36
-91 74 45 42 76 66 31 18
-31 38 9 66 -57 -48 34 -112
100 -7 -83 72 25 -31 -78 77
-38 1 106 -98 -29 90 58 11
-49 -58 -69 13 -51 11 -4 62
95 48 -117 -6 17 -34 15 -87
55 39 95 9 104 -15 47 10
92 11 -13 -127 51 63 -73 -52
-101 126 -36 -9 -91 66 102 -2
-20 54 17 88 -25 -23 -36 -76
-3 -2 5 -80 -78 11 -123 57
-80 108 -127 97 -112 21 -79 -89
-94 121 69 58 88 -26 79 51
34 100 55 127 -127 82 105 -105
127 -3 -110 95 -80 56 -127 105
72 50 127 -81 -41 -116 110 29
-38 -56 -127 21 34 -60 -127 -116
127 82 13 -51 81 127 51 -127
98 69 112 31 127 -27 -89 34
5 -60 75 107 -89 49 -117 127
127 -86 -44 -21 -127 71 127 30
31 0 -33 -53 -55 6 -15 0
-41 -4 -3 44 -8 73 18 -82
-62 44 -49 87 -70 13 23 -32
-39 59 91 25 42 27 22 -6
51 73 50 39 -40 -40 51 -9
33 10 -43 12 55 -16 -43 10
-45 9 66 16 -73 -16 42 -127
-5 0 -106 -11 10 -94 -112 49
48 34 49 22 99 -62 63 -54

functional_5/functional_1/block2b_bn/FusedBatchNormV3;functional_5/functional_1/block2b_dwconv/depthwise;functional_5/functional_1/block3a_expand_conv/Conv2D i1 [1, 3, 3, 144]
00000000: 2af2 dc06 efcc 1810 eeed 22f0 ef7f 0fde
00000010: 0af0 ebf7 b0fd 06e2 85ca 1310 38df 0225
00000020: e4fd f4c8 2921 1215 dcf3 fc34 f906 fef9
00000030: 0220 441c 102b e6f8 03f3 d420 ef07 0c17
00000040: 4918 03f8 0cd2 04fc c7ee f80c f504 110d
00000050: fb03 cada f7fe f5f7 3cee 13f7 e10a 201f
00000060: 259e e8e1 13e1 0a10 1af3 d712 06ee d8fc
00000070: eb7f f718 8108 1f38 f5f0 25ce 02f1 fd0a
00000080: ec19 dbfb 2435 ea02 0916 0034 d3f9 0523
00000090: aedd 0307 ca90 d119 22f1 1312 03e2 71d9
000000a0: 38ed 15ff 3105 f581 ea81 1215 7ffc 0a7f
000000b0: 0ce6 0938 1203 7fa9 22ed ece6 6818 e50a
000000c0: f17f 4e0c ed10 dd05 1cf0 024b 7617 3a81
000000d0: 670f 3b8d fee1 1204 7ffc 1e12 1401 0fe9
000000e0: 81d9 fff1 0ec5 0321 81ed 7f05 fcf0 01c5
000000f0: 310a 0caf 23f0 09f5 7f0e 862b 66c6 b810
42 -14 -36 6 -17 -52 24 16
-18 -19 34 -16 -17 127 15 -34
10 -16 -21 -9 -80 -3 6 -30
-123 -54 19 16 56 -33 2 37
-28 -3 -12 -56 41 33 18 21
-36 -13 -4 52 -7 6 -2 -7
2 32 68 28 16 43 -26 -8
3 -13 -44 32 -17 7 12 23
73 24 3 -8 12 -46 4 -4
-57 -18 -8 12 -11 4 17 13
-5 3 -54 -38 -9 -2 -11 -9
60 -18 19 -9 -31 10 32 31
37 -98 -24 -31 19 -31 10 16
26 -13 -41 18 6 -18 -40 -4
-21 127 -9 24 -127 8 31 56
-11 -16 37 -50 2 -15 -3 10
-20 25 -37 -5 36 53 -22 2
9 22 0 52 -45 -7 5 35
-82 -35 3 7 -54 -112 -47 25
34 -15 19 18 3 -30 113 -39
56 -19 21 -1 49 5 -11 -127
-22 -127 18 21 127 -4 10 127
12 -26 9 56 18 3 127 -87
34 -19 -20 -26 104 24 -27 10
-15 127 78 12 -19 16 -35 5
28 -16 2 75 118 23 58 -127
103 15 59 -115 -2 -31 18 4
127 -4 30 18 20 1 15 -23
-127 -39 -1 -15 14 -59 3 33
-127 -19 127 5 -4 -16 1 -59
49 10 12 -81 35 -16 9 -11
127 14 -122 43 102 -58 -72 16
